{"modelTopology": {"node": [{"name": "strided_slice_2/stack", "op": "Const", "attr": {"value": {"tensor": {"dtype": "DT_INT32", "tensorShape": {"dim": [{"size": "1"}]}}}, "dtype": {"type": "DT_INT32"}}}, {"name": "strided_slice/stack_1", "op": "Const", "attr": {"value": {"tensor": {"dtype": "DT_INT32", "tensorShape": {"dim": [{"size": "1"}]}}}, "dtype": {"type": "DT_INT32"}}}, {"name": "ImageTensor", "op": "Placeholder", "attr": {"shape": {"shape": {"dim": [{"size": "1"}, {"size": "-1"}, {"size": "-1"}, {"size": "3"}]}}, "dtype": {"type": "DT_UINT8"}}}, {"name": "concat/axis", "op": "Const", "attr": {"value": {"tensor": {"dtype": "DT_INT32", "tensorShape": {}}}, "dtype": {"type": "DT_INT32"}}}, {"name": "strided_slice_2/stack_1", "op": "Const", "attr": {"value": {"tensor": {"dtype": "DT_INT32", "tensorShape": {"dim": [{"size": "1"}]}}}, "dtype": {"type": "DT_INT32"}}}, {"name": "strided_slice_1/stack", "op": "Const", "attr": {"value": {"tensor": {"dtype": "DT_INT32", "tensorShape": {"dim": [{"size": "1"}]}}}, "dtype": {"type": "DT_INT32"}}}, {"name": "Slice/size/0", "op": "Const", "attr": {"value": {"tensor": {"dtype": "DT_INT32", "tensorShape": {}}}, "dtype": {"type": "DT_INT32"}}}, {"name": "Slice/begin", "op": "Const", "attr": {"value": {"tensor": {"dtype": "DT_INT32", "tensorShape": {"dim": [{"size": "3"}]}}}, "dtype": {"type": "DT_INT32"}}}, {"name": "strided_slice_6", "op": "Const", "attr": {"value": {"tensor": {"dtype": "DT_INT32", "tensorShape": {"dim": [{"size": "2"}]}}}, "dtype": {"type": "DT_INT32"}}}, {"name": "decoder/ResizeBilinear/size", "op": "Const", "attr": {"value": {"tensor": {"dtype": "DT_INT32", "tensorShape": {"dim": [{"size": "2"}]}}}, "dtype": {"type": "DT_INT32"}}}, {"name": "logits/semantic/biases", "op": "Const", "attr": {"value": {"tensor": {"dtype": "DT_FLOAT", "tensorShape": {"dim": [{"size": "151"}]}}}, "dtype": {"type": "DT_FLOAT"}}}, {"name": "logits/semantic/weights", "op": "Const", "attr": {"value": {"tensor": {"dtype": "DT_FLOAT", "tensorShape": {"dim": [{"size": "1"}, {"size": "1"}, {"size": "256"}, {"size": "151"}]}}}, "dtype": {"type": "DT_FLOAT"}}}, {"name": "decoder/decoder_conv1_pointwise/BatchNorm/FusedBatchNorm/Offset", "op": "Const", "attr": {"dtype": {"type": "DT_FLOAT"}, "value": {"tensor": {"dtype": "DT_FLOAT", "tensorShape": {"dim": [{"size": "256"}]}}}}}, {"name": "decoder/decoder_conv1_pointwise/Conv2D/merged_input", "op": "Const", "attr": {"value": {"tensor": {"dtype": "DT_FLOAT", "tensorShape": {"dim": [{"size": "1"}, {"size": "1"}, {"size": "256"}, {"size": "256"}]}}}, "dtype": {"type": "DT_FLOAT"}}}, {"name": "decoder/decoder_conv1_depthwise/BatchNorm/FusedBatchNorm/Offset", "op": "Const", "attr": {"dtype": {"type": "DT_FLOAT"}, "value": {"tensor": {"dtype": "DT_FLOAT", "tensorShape": {"dim": [{"size": "256"}]}}}}}, {"name": "decoder/decoder_conv1_depthwise/BatchNorm/FusedBatchNorm/Scaled", "op": "Const", "attr": {"value": {"tensor": {"dtype": "DT_FLOAT", "tensorShape": {"dim": [{"size": "256"}]}}}, "dtype": {"type": "DT_FLOAT"}}}, {"name": "decoder/decoder_conv1_depthwise/depthwise_weights", "op": "Const", "attr": {"value": {"tensor": {"dtype": "DT_FLOAT", "tensorShape": {"dim": [{"size": "3"}, {"size": "3"}, {"size": "256"}, {"size": "1"}]}}}, "dtype": {"type": "DT_FLOAT"}}}, {"name": "decoder/decoder_conv0_pointwise/BatchNorm/FusedBatchNorm/Offset", "op": "Const", "attr": {"value": {"tensor": {"dtype": "DT_FLOAT", "tensorShape": {"dim": [{"size": "256"}]}}}, "dtype": {"type": "DT_FLOAT"}}}, {"name": "decoder/decoder_conv0_pointwise/Conv2D/merged_input", "op": "Const", "attr": {"value": {"tensor": {"dtype": "DT_FLOAT", "tensorShape": {"dim": [{"size": "1"}, {"size": "1"}, {"size": "304"}, {"size": "256"}]}}}, "dtype": {"type": "DT_FLOAT"}}}, {"name": "decoder/decoder_conv0_depthwise/BatchNorm/FusedBatchNorm/Offset", "op": "Const", "attr": {"value": {"tensor": {"dtype": "DT_FLOAT", "tensorShape": {"dim": [{"size": "304"}]}}}, "dtype": {"type": "DT_FLOAT"}}}, {"name": "decoder/decoder_conv0_depthwise/BatchNorm/FusedBatchNorm/Scaled", "op": "Const", "attr": {"value": {"tensor": {"dtype": "DT_FLOAT", "tensorShape": {"dim": [{"size": "304"}]}}}, "dtype": {"type": "DT_FLOAT"}}}, {"name": "decoder/decoder_conv0_depthwise/depthwise_weights", "op": "Const", "attr": {"value": {"tensor": {"dtype": "DT_FLOAT", "tensorShape": {"dim": [{"size": "3"}, {"size": "3"}, {"size": "304"}, {"size": "1"}]}}}, "dtype": {"type": "DT_FLOAT"}}}, {"name": "decoder/feature_projection0/BatchNorm/FusedBatchNorm/Offset", "op": "Const", "attr": {"value": {"tensor": {"dtype": "DT_FLOAT", "tensorShape": {"dim": [{"size": "48"}]}}}, "dtype": {"type": "DT_FLOAT"}}}, {"name": "decoder/feature_projection0/Conv2D/merged_input", "op": "Const", "attr": {"value": {"tensor": {"dtype": "DT_FLOAT", "tensorShape": {"dim": [{"size": "1"}, {"size": "1"}, {"size": "144"}, {"size": "48"}]}}}, "dtype": {"type": "DT_FLOAT"}}}, {"name": "MobilenetV2/expanded_conv_2/depthwise/BatchNorm/FusedBatchNorm/Offset", "op": "Const", "attr": {"value": {"tensor": {"dtype": "DT_FLOAT", "tensorShape": {"dim": [{"size": "144"}]}}}, "dtype": {"type": "DT_FLOAT"}}}, {"name": "MobilenetV2/expanded_conv_2/depthwise/BatchNorm/FusedBatchNorm/Scaled", "op": "Const", "attr": {"value": {"tensor": {"dtype": "DT_FLOAT", "tensorShape": {"dim": [{"size": "144"}]}}}, "dtype": {"type": "DT_FLOAT"}}}, {"name": "MobilenetV2/expanded_conv_2/depthwise/depthwise_weights", "op": "Const", "attr": {"value": {"tensor": {"dtype": "DT_FLOAT", "tensorShape": {"dim": [{"size": "3"}, {"size": "3"}, {"size": "144"}, {"size": "1"}]}}}, "dtype": {"type": "DT_FLOAT"}}}, {"name": "MobilenetV2/expanded_conv_2/expand/BatchNorm/FusedBatchNorm/Offset", "op": "Const", "attr": {"value": {"tensor": {"dtype": "DT_FLOAT", "tensorShape": {"dim": [{"size": "144"}]}}}, "dtype": {"type": "DT_FLOAT"}}}, {"name": "MobilenetV2/expanded_conv_2/expand/Conv2D/merged_input", "op": "Const", "attr": {"value": {"tensor": {"dtype": "DT_FLOAT", "tensorShape": {"dim": [{"size": "1"}, {"size": "1"}, {"size": "24"}, {"size": "144"}]}}}, "dtype": {"type": "DT_FLOAT"}}}, {"name": "MobilenetV2/expanded_conv_1/project/BatchNorm/FusedBatchNorm/Offset", "op": "Const", "attr": {"value": {"tensor": {"dtype": "DT_FLOAT", "tensorShape": {"dim": [{"size": "24"}]}}}, "dtype": {"type": "DT_FLOAT"}}}, {"name": "MobilenetV2/expanded_conv_1/project/Conv2D/merged_input", "op": "Const", "attr": {"value": {"tensor": {"dtype": "DT_FLOAT", "tensorShape": {"dim": [{"size": "1"}, {"size": "1"}, {"size": "96"}, {"size": "24"}]}}}, "dtype": {"type": "DT_FLOAT"}}}, {"name": "MobilenetV2/expanded_conv_1/depthwise/BatchNorm/FusedBatchNorm/Offset", "op": "Const", "attr": {"value": {"tensor": {"dtype": "DT_FLOAT", "tensorShape": {"dim": [{"size": "96"}]}}}, "dtype": {"type": "DT_FLOAT"}}}, {"name": "MobilenetV2/expanded_conv_1/depthwise/BatchNorm/FusedBatchNorm/Scaled", "op": "Const", "attr": {"value": {"tensor": {"dtype": "DT_FLOAT", "tensorShape": {"dim": [{"size": "96"}]}}}, "dtype": {"type": "DT_FLOAT"}}}, {"name": "MobilenetV2/expanded_conv_1/depthwise/depthwise_weights", "op": "Const", "attr": {"value": {"tensor": {"dtype": "DT_FLOAT", "tensorShape": {"dim": [{"size": "3"}, {"size": "3"}, {"size": "96"}, {"size": "1"}]}}}, "dtype": {"type": "DT_FLOAT"}}}, {"name": "MobilenetV2/expanded_conv_1/expand/BatchNorm/FusedBatchNorm/Offset", "op": "Const", "attr": {"value": {"tensor": {"dtype": "DT_FLOAT", "tensorShape": {"dim": [{"size": "96"}]}}}, "dtype": {"type": "DT_FLOAT"}}}, {"name": "MobilenetV2/expanded_conv_1/expand/Conv2D/merged_input", "op": "Const", "attr": {"value": {"tensor": {"dtype": "DT_FLOAT", "tensorShape": {"dim": [{"size": "1"}, {"size": "1"}, {"size": "16"}, {"size": "96"}]}}}, "dtype": {"type": "DT_FLOAT"}}}, {"name": "MobilenetV2/expanded_conv/project/BatchNorm/FusedBatchNorm/Offset", "op": "Const", "attr": {"value": {"tensor": {"dtype": "DT_FLOAT", "tensorShape": {"dim": [{"size": "16"}]}}}, "dtype": {"type": "DT_FLOAT"}}}, {"name": "MobilenetV2/expanded_conv/project/Conv2D/merged_input", "op": "Const", "attr": {"value": {"tensor": {"dtype": "DT_FLOAT", "tensorShape": {"dim": [{"size": "1"}, {"size": "1"}, {"size": "32"}, {"size": "16"}]}}}, "dtype": {"type": "DT_FLOAT"}}}, {"name": "MobilenetV2/expanded_conv/depthwise/BatchNorm/FusedBatchNorm/Offset", "op": "Const", "attr": {"value": {"tensor": {"dtype": "DT_FLOAT", "tensorShape": {"dim": [{"size": "32"}]}}}, "dtype": {"type": "DT_FLOAT"}}}, {"name": "MobilenetV2/expanded_conv/depthwise/BatchNorm/FusedBatchNorm/Scaled", "op": "Const", "attr": {"dtype": {"type": "DT_FLOAT"}, "value": {"tensor": {"dtype": "DT_FLOAT", "tensorShape": {"dim": [{"size": "32"}]}}}}}, {"name": "MobilenetV2/expanded_conv/depthwise/depthwise_weights", "op": "Const", "attr": {"value": {"tensor": {"dtype": "DT_FLOAT", "tensorShape": {"dim": [{"size": "3"}, {"size": "3"}, {"size": "32"}, {"size": "1"}]}}}, "dtype": {"type": "DT_FLOAT"}}}, {"name": "MobilenetV2/Conv/BatchNorm/FusedBatchNorm/Offset", "op": "Const", "attr": {"value": {"tensor": {"dtype": "DT_FLOAT", "tensorShape": {"dim": [{"size": "32"}]}}}, "dtype": {"type": "DT_FLOAT"}}}, {"name": "MobilenetV2/Conv/Conv2D/merged_input", "op": "Const", "attr": {"value": {"tensor": {"dtype": "DT_FLOAT", "tensorShape": {"dim": [{"size": "3"}, {"size": "3"}, {"size": "3"}, {"size": "32"}]}}}, "dtype": {"type": "DT_FLOAT"}}}, {"name": "sub_7/y", "op": "Const", "attr": {"value": {"tensor": {"dtype": "DT_FLOAT", "tensorShape": {}}}, "dtype": {"type": "DT_FLOAT"}}}, {"name": "stack/0", "op": "Const", "attr": {"value": {"tensor": {"dtype": "DT_INT32", "tensorShape": {}}}, "dtype": {"type": "DT_INT32"}}}, {"name": "Reshape", "op": "Const", "attr": {"value": {"tensor": {"dtype": "DT_FLOAT", "tensorShape": {"dim": [{"size": "1"}, {"size": "1"}, {"size": "3"}]}}}, "dtype": {"type": "DT_FLOAT"}}}, {"name": "stack_2", "op": "Const", "attr": {"value": {"tensor": {"dtype": "DT_INT32", "tensorShape": {"dim": [{"size": "2"}]}}}, "dtype": {"type": "DT_INT32"}}}, {"name": "sub_1/x", "op": "Const", "attr": {"value": {"tensor": {"dtype": "DT_INT32", "tensorShape": {}}}, "dtype": {"type": "DT_INT32"}}}, {"name": "mul/x", "op": "Const", "attr": {"value": {"tensor": {"dtype": "DT_FLOAT", "tensorShape": {}}}, "dtype": {"type": "DT_FLOAT"}}}, {"name": "concat_projection/BatchNorm/FusedBatchNorm/Offset", "op": "Const", "attr": {"value": {"tensor": {"dtype": "DT_FLOAT", "tensorShape": {"dim": [{"size": "256"}]}}}, "dtype": {"type": "DT_FLOAT"}}}, {"name": "concat_projection/Conv2D/merged_input", "op": "Const", "attr": {"value": {"tensor": {"dtype": "DT_FLOAT", "tensorShape": {"dim": [{"size": "1"}, {"size": "1"}, {"size": "512"}, {"size": "256"}]}}}, "dtype": {"type": "DT_FLOAT"}}}, {"name": "aspp0/BatchNorm/FusedBatchNorm/Offset", "op": "Const", "attr": {"value": {"tensor": {"dtype": "DT_FLOAT", "tensorShape": {"dim": [{"size": "256"}]}}}, "dtype": {"type": "DT_FLOAT"}}}, {"name": "aspp0/Conv2D/merged_input", "op": "Const", "attr": {"value": {"tensor": {"dtype": "DT_FLOAT", "tensorShape": {"dim": [{"size": "1"}, {"size": "1"}, {"size": "320"}, {"size": "256"}]}}}, "dtype": {"type": "DT_FLOAT"}}}, {"name": "MobilenetV2/expanded_conv_16/project/BatchNorm/FusedBatchNorm/Offset", "op": "Const", "attr": {"value": {"tensor": {"dtype": "DT_FLOAT", "tensorShape": {"dim": [{"size": "320"}]}}}, "dtype": {"type": "DT_FLOAT"}}}, {"name": "MobilenetV2/expanded_conv_16/project/Conv2D/merged_input", "op": "Const", "attr": {"value": {"tensor": {"dtype": "DT_FLOAT", "tensorShape": {"dim": [{"size": "1"}, {"size": "1"}, {"size": "960"}, {"size": "320"}]}}}, "dtype": {"type": "DT_FLOAT"}}}, {"name": "MobilenetV2/expanded_conv_16/depthwise/BatchNorm/FusedBatchNorm/Offset", "op": "Const", "attr": {"value": {"tensor": {"dtype": "DT_FLOAT", "tensorShape": {"dim": [{"size": "960"}]}}}, "dtype": {"type": "DT_FLOAT"}}}, {"name": "MobilenetV2/expanded_conv_16/depthwise/BatchNorm/FusedBatchNorm/Scaled", "op": "Const", "attr": {"value": {"tensor": {"dtype": "DT_FLOAT", "tensorShape": {"dim": [{"size": "960"}]}}}, "dtype": {"type": "DT_FLOAT"}}}, {"name": "MobilenetV2/expanded_conv_15/depthwise/depthwise/BatchToSpaceND/crops", "op": "Const", "attr": {"value": {"tensor": {"dtype": "DT_INT32", "tensorShape": {"dim": [{"size": "2"}, {"size": "2"}]}}}, "dtype": {"type": "DT_INT32"}}}, {"name": "MobilenetV2/expanded_conv_15/depthwise/depthwise/SpaceToBatchND/block_shape", "op": "Const", "attr": {"value": {"tensor": {"dtype": "DT_INT32", "tensorShape": {"dim": [{"size": "2"}]}}}, "dtype": {"type": "DT_INT32"}}}, {"name": "MobilenetV2/expanded_conv_16/depthwise/depthwise_weights", "op": "Const", "attr": {"value": {"tensor": {"dtype": "DT_FLOAT", "tensorShape": {"dim": [{"size": "3"}, {"size": "3"}, {"size": "960"}, {"size": "1"}]}}}, "dtype": {"type": "DT_FLOAT"}}}, {"name": "MobilenetV2/expanded_conv_15/depthwise/depthwise/SpaceToBatchND/paddings", "op": "Const", "attr": {"value": {"tensor": {"dtype": "DT_INT32", "tensorShape": {"dim": [{"size": "2"}, {"size": "2"}]}}}, "dtype": {"type": "DT_INT32"}}}, {"name": "MobilenetV2/expanded_conv_16/expand/BatchNorm/FusedBatchNorm/Offset", "op": "Const", "attr": {"value": {"tensor": {"dtype": "DT_FLOAT", "tensorShape": {"dim": [{"size": "960"}]}}}, "dtype": {"type": "DT_FLOAT"}}}, {"name": "MobilenetV2/expanded_conv_16/expand/Conv2D/merged_input", "op": "Const", "attr": {"value": {"tensor": {"dtype": "DT_FLOAT", "tensorShape": {"dim": [{"size": "1"}, {"size": "1"}, {"size": "160"}, {"size": "960"}]}}}, "dtype": {"type": "DT_FLOAT"}}}, {"name": "MobilenetV2/expanded_conv_13/project/BatchNorm/FusedBatchNorm/Offset", "op": "Const", "attr": {"value": {"tensor": {"dtype": "DT_FLOAT", "tensorShape": {"dim": [{"size": "160"}]}}}, "dtype": {"type": "DT_FLOAT"}}}, {"name": "MobilenetV2/expanded_conv_13/project/Conv2D/merged_input", "op": "Const", "attr": {"value": {"tensor": {"dtype": "DT_FLOAT", "tensorShape": {"dim": [{"size": "1"}, {"size": "1"}, {"size": "576"}, {"size": "160"}]}}}, "dtype": {"type": "DT_FLOAT"}}}, {"name": "MobilenetV2/expanded_conv_13/depthwise/BatchNorm/FusedBatchNorm/Offset", "op": "Const", "attr": {"dtype": {"type": "DT_FLOAT"}, "value": {"tensor": {"dtype": "DT_FLOAT", "tensorShape": {"dim": [{"size": "576"}]}}}}}, {"name": "MobilenetV2/expanded_conv_13/depthwise/BatchNorm/FusedBatchNorm/Scaled", "op": "Const", "attr": {"value": {"tensor": {"dtype": "DT_FLOAT", "tensorShape": {"dim": [{"size": "576"}]}}}, "dtype": {"type": "DT_FLOAT"}}}, {"name": "MobilenetV2/expanded_conv_12/depthwise/depthwise/BatchToSpaceND/crops", "op": "Const", "attr": {"value": {"tensor": {"dtype": "DT_INT32", "tensorShape": {"dim": [{"size": "2"}, {"size": "2"}]}}}, "dtype": {"type": "DT_INT32"}}}, {"name": "MobilenetV2/expanded_conv_12/depthwise/depthwise/SpaceToBatchND/block_shape", "op": "Const", "attr": {"value": {"tensor": {"dtype": "DT_INT32", "tensorShape": {"dim": [{"size": "2"}]}}}, "dtype": {"type": "DT_INT32"}}}, {"name": "MobilenetV2/expanded_conv_13/depthwise/depthwise_weights", "op": "Const", "attr": {"value": {"tensor": {"dtype": "DT_FLOAT", "tensorShape": {"dim": [{"size": "3"}, {"size": "3"}, {"size": "576"}, {"size": "1"}]}}}, "dtype": {"type": "DT_FLOAT"}}}, {"name": "MobilenetV2/expanded_conv_12/depthwise/depthwise/SpaceToBatchND/paddings", "op": "Const", "attr": {"value": {"tensor": {"dtype": "DT_INT32", "tensorShape": {"dim": [{"size": "2"}, {"size": "2"}]}}}, "dtype": {"type": "DT_INT32"}}}, {"name": "MobilenetV2/expanded_conv_13/expand/BatchNorm/FusedBatchNorm/Offset", "op": "Const", "attr": {"value": {"tensor": {"dtype": "DT_FLOAT", "tensorShape": {"dim": [{"size": "576"}]}}}, "dtype": {"type": "DT_FLOAT"}}}, {"name": "MobilenetV2/expanded_conv_13/expand/Conv2D/merged_input", "op": "Const", "attr": {"dtype": {"type": "DT_FLOAT"}, "value": {"tensor": {"dtype": "DT_FLOAT", "tensorShape": {"dim": [{"size": "1"}, {"size": "1"}, {"size": "96"}, {"size": "576"}]}}}}}, {"name": "MobilenetV2/expanded_conv_10/project/BatchNorm/FusedBatchNorm/Offset", "op": "Const", "attr": {"value": {"tensor": {"dtype": "DT_FLOAT", "tensorShape": {"dim": [{"size": "96"}]}}}, "dtype": {"type": "DT_FLOAT"}}}, {"name": "MobilenetV2/expanded_conv_10/project/Conv2D/merged_input", "op": "Const", "attr": {"value": {"tensor": {"dtype": "DT_FLOAT", "tensorShape": {"dim": [{"size": "1"}, {"size": "1"}, {"size": "384"}, {"size": "96"}]}}}, "dtype": {"type": "DT_FLOAT"}}}, {"name": "MobilenetV2/expanded_conv_10/depthwise/BatchNorm/FusedBatchNorm/Offset", "op": "Const", "attr": {"value": {"tensor": {"dtype": "DT_FLOAT", "tensorShape": {"dim": [{"size": "384"}]}}}, "dtype": {"type": "DT_FLOAT"}}}, {"name": "MobilenetV2/expanded_conv_10/depthwise/BatchNorm/FusedBatchNorm/Scaled", "op": "Const", "attr": {"value": {"tensor": {"dtype": "DT_FLOAT", "tensorShape": {"dim": [{"size": "384"}]}}}, "dtype": {"type": "DT_FLOAT"}}}, {"name": "MobilenetV2/expanded_conv_10/depthwise/depthwise_weights", "op": "Const", "attr": {"value": {"tensor": {"dtype": "DT_FLOAT", "tensorShape": {"dim": [{"size": "3"}, {"size": "3"}, {"size": "384"}, {"size": "1"}]}}}, "dtype": {"type": "DT_FLOAT"}}}, {"name": "MobilenetV2/expanded_conv_10/expand/BatchNorm/FusedBatchNorm/Offset", "op": "Const", "attr": {"dtype": {"type": "DT_FLOAT"}, "value": {"tensor": {"dtype": "DT_FLOAT", "tensorShape": {"dim": [{"size": "384"}]}}}}}, {"name": "MobilenetV2/expanded_conv_10/expand/Conv2D/merged_input", "op": "Const", "attr": {"value": {"tensor": {"dtype": "DT_FLOAT", "tensorShape": {"dim": [{"size": "1"}, {"size": "1"}, {"size": "64"}, {"size": "384"}]}}}, "dtype": {"type": "DT_FLOAT"}}}, {"name": "MobilenetV2/expanded_conv_6/project/BatchNorm/FusedBatchNorm/Offset", "op": "Const", "attr": {"value": {"tensor": {"dtype": "DT_FLOAT", "tensorShape": {"dim": [{"size": "64"}]}}}, "dtype": {"type": "DT_FLOAT"}}}, {"name": "MobilenetV2/expanded_conv_6/project/Conv2D/merged_input", "op": "Const", "attr": {"value": {"tensor": {"dtype": "DT_FLOAT", "tensorShape": {"dim": [{"size": "1"}, {"size": "1"}, {"size": "192"}, {"size": "64"}]}}}, "dtype": {"type": "DT_FLOAT"}}}, {"name": "MobilenetV2/expanded_conv_6/depthwise/BatchNorm/FusedBatchNorm/Offset", "op": "Const", "attr": {"value": {"tensor": {"dtype": "DT_FLOAT", "tensorShape": {"dim": [{"size": "192"}]}}}, "dtype": {"type": "DT_FLOAT"}}}, {"name": "MobilenetV2/expanded_conv_6/depthwise/BatchNorm/FusedBatchNorm/Scaled", "op": "Const", "attr": {"value": {"tensor": {"dtype": "DT_FLOAT", "tensorShape": {"dim": [{"size": "192"}]}}}, "dtype": {"type": "DT_FLOAT"}}}, {"name": "MobilenetV2/expanded_conv_6/depthwise/depthwise_weights", "op": "Const", "attr": {"value": {"tensor": {"dtype": "DT_FLOAT", "tensorShape": {"dim": [{"size": "3"}, {"size": "3"}, {"size": "192"}, {"size": "1"}]}}}, "dtype": {"type": "DT_FLOAT"}}}, {"name": "MobilenetV2/expanded_conv_6/expand/BatchNorm/FusedBatchNorm/Offset", "op": "Const", "attr": {"value": {"tensor": {"dtype": "DT_FLOAT", "tensorShape": {"dim": [{"size": "192"}]}}}, "dtype": {"type": "DT_FLOAT"}}}, {"name": "MobilenetV2/expanded_conv_6/expand/Conv2D/merged_input", "op": "Const", "attr": {"value": {"tensor": {"dtype": "DT_FLOAT", "tensorShape": {"dim": [{"size": "1"}, {"size": "1"}, {"size": "32"}, {"size": "192"}]}}}, "dtype": {"type": "DT_FLOAT"}}}, {"name": "MobilenetV2/expanded_conv_3/project/BatchNorm/FusedBatchNorm/Offset", "op": "Const", "attr": {"value": {"tensor": {"dtype": "DT_FLOAT", "tensorShape": {"dim": [{"size": "32"}]}}}, "dtype": {"type": "DT_FLOAT"}}}, {"name": "MobilenetV2/expanded_conv_3/project/Conv2D/merged_input", "op": "Const", "attr": {"dtype": {"type": "DT_FLOAT"}, "value": {"tensor": {"dtype": "DT_FLOAT", "tensorShape": {"dim": [{"size": "1"}, {"size": "1"}, {"size": "144"}, {"size": "32"}]}}}}}, {"name": "MobilenetV2/expanded_conv_3/depthwise/BatchNorm/FusedBatchNorm/Offset", "op": "Const", "attr": {"value": {"tensor": {"dtype": "DT_FLOAT", "tensorShape": {"dim": [{"size": "144"}]}}}, "dtype": {"type": "DT_FLOAT"}}}, {"name": "MobilenetV2/expanded_conv_3/depthwise/BatchNorm/FusedBatchNorm/Scaled", "op": "Const", "attr": {"value": {"tensor": {"dtype": "DT_FLOAT", "tensorShape": {"dim": [{"size": "144"}]}}}, "dtype": {"type": "DT_FLOAT"}}}, {"name": "MobilenetV2/expanded_conv_3/depthwise/depthwise_weights", "op": "Const", "attr": {"value": {"tensor": {"dtype": "DT_FLOAT", "tensorShape": {"dim": [{"size": "3"}, {"size": "3"}, {"size": "144"}, {"size": "1"}]}}}, "dtype": {"type": "DT_FLOAT"}}}, {"name": "MobilenetV2/expanded_conv_3/expand/BatchNorm/FusedBatchNorm/Offset", "op": "Const", "attr": {"dtype": {"type": "DT_FLOAT"}, "value": {"tensor": {"dtype": "DT_FLOAT", "tensorShape": {"dim": [{"size": "144"}]}}}}}, {"name": "MobilenetV2/expanded_conv_3/expand/Conv2D/merged_input", "op": "Const", "attr": {"value": {"tensor": {"dtype": "DT_FLOAT", "tensorShape": {"dim": [{"size": "1"}, {"size": "1"}, {"size": "24"}, {"size": "144"}]}}}, "dtype": {"type": "DT_FLOAT"}}}, {"name": "MobilenetV2/expanded_conv_2/project/Conv2D/merged_input", "op": "Const", "attr": {"value": {"tensor": {"dtype": "DT_FLOAT", "tensorShape": {"dim": [{"size": "1"}, {"size": "1"}, {"size": "144"}, {"size": "24"}]}}}, "dtype": {"type": "DT_FLOAT"}}}, {"name": "MobilenetV2/expanded_conv_2/project/BatchNorm/FusedBatchNorm/Offset", "op": "Const", "attr": {"dtype": {"type": "DT_FLOAT"}, "value": {"tensor": {"dtype": "DT_FLOAT", "tensorShape": {"dim": [{"size": "24"}]}}}}}, {"name": "MobilenetV2/expanded_conv_4/project/Conv2D/merged_input", "op": "Const", "attr": {"value": {"tensor": {"dtype": "DT_FLOAT", "tensorShape": {"dim": [{"size": "1"}, {"size": "1"}, {"size": "192"}, {"size": "32"}]}}}, "dtype": {"type": "DT_FLOAT"}}}, {"name": "MobilenetV2/expanded_conv_4/depthwise/BatchNorm/FusedBatchNorm/Offset", "op": "Const", "attr": {"value": {"tensor": {"dtype": "DT_FLOAT", "tensorShape": {"dim": [{"size": "192"}]}}}, "dtype": {"type": "DT_FLOAT"}}}, {"name": "MobilenetV2/expanded_conv_4/depthwise/BatchNorm/FusedBatchNorm/Scaled", "op": "Const", "attr": {"dtype": {"type": "DT_FLOAT"}, "value": {"tensor": {"dtype": "DT_FLOAT", "tensorShape": {"dim": [{"size": "192"}]}}}}}, {"name": "MobilenetV2/expanded_conv_4/depthwise/depthwise_weights", "op": "Const", "attr": {"value": {"tensor": {"dtype": "DT_FLOAT", "tensorShape": {"dim": [{"size": "3"}, {"size": "3"}, {"size": "192"}, {"size": "1"}]}}}, "dtype": {"type": "DT_FLOAT"}}}, {"name": "MobilenetV2/expanded_conv_4/expand/BatchNorm/FusedBatchNorm/Offset", "op": "Const", "attr": {"value": {"tensor": {"dtype": "DT_FLOAT", "tensorShape": {"dim": [{"size": "192"}]}}}, "dtype": {"type": "DT_FLOAT"}}}, {"name": "MobilenetV2/expanded_conv_4/expand/Conv2D/merged_input", "op": "Const", "attr": {"value": {"tensor": {"dtype": "DT_FLOAT", "tensorShape": {"dim": [{"size": "1"}, {"size": "1"}, {"size": "32"}, {"size": "192"}]}}}, "dtype": {"type": "DT_FLOAT"}}}, {"name": "MobilenetV2/expanded_conv_4/project/BatchNorm/FusedBatchNorm/Offset", "op": "Const", "attr": {"value": {"tensor": {"dtype": "DT_FLOAT", "tensorShape": {"dim": [{"size": "32"}]}}}, "dtype": {"type": "DT_FLOAT"}}}, {"name": "MobilenetV2/expanded_conv_5/project/Conv2D/merged_input", "op": "Const", "attr": {"value": {"tensor": {"dtype": "DT_FLOAT", "tensorShape": {"dim": [{"size": "1"}, {"size": "1"}, {"size": "192"}, {"size": "32"}]}}}, "dtype": {"type": "DT_FLOAT"}}}, {"name": "MobilenetV2/expanded_conv_5/depthwise/BatchNorm/FusedBatchNorm/Offset", "op": "Const", "attr": {"value": {"tensor": {"dtype": "DT_FLOAT", "tensorShape": {"dim": [{"size": "192"}]}}}, "dtype": {"type": "DT_FLOAT"}}}, {"name": "MobilenetV2/expanded_conv_5/depthwise/BatchNorm/FusedBatchNorm/Scaled", "op": "Const", "attr": {"value": {"tensor": {"dtype": "DT_FLOAT", "tensorShape": {"dim": [{"size": "192"}]}}}, "dtype": {"type": "DT_FLOAT"}}}, {"name": "MobilenetV2/expanded_conv_5/depthwise/depthwise_weights", "op": "Const", "attr": {"value": {"tensor": {"dtype": "DT_FLOAT", "tensorShape": {"dim": [{"size": "3"}, {"size": "3"}, {"size": "192"}, {"size": "1"}]}}}, "dtype": {"type": "DT_FLOAT"}}}, {"name": "MobilenetV2/expanded_conv_5/expand/BatchNorm/FusedBatchNorm/Offset", "op": "Const", "attr": {"value": {"tensor": {"dtype": "DT_FLOAT", "tensorShape": {"dim": [{"size": "192"}]}}}, "dtype": {"type": "DT_FLOAT"}}}, {"name": "MobilenetV2/expanded_conv_5/expand/Conv2D/merged_input", "op": "Const", "attr": {"value": {"tensor": {"dtype": "DT_FLOAT", "tensorShape": {"dim": [{"size": "1"}, {"size": "1"}, {"size": "32"}, {"size": "192"}]}}}, "dtype": {"type": "DT_FLOAT"}}}, {"name": "MobilenetV2/expanded_conv_5/project/BatchNorm/FusedBatchNorm/Offset", "op": "Const", "attr": {"value": {"tensor": {"dtype": "DT_FLOAT", "tensorShape": {"dim": [{"size": "32"}]}}}, "dtype": {"type": "DT_FLOAT"}}}, {"name": "MobilenetV2/expanded_conv_7/project/BatchNorm/FusedBatchNorm/Offset", "op": "Const", "attr": {"dtype": {"type": "DT_FLOAT"}, "value": {"tensor": {"dtype": "DT_FLOAT", "tensorShape": {"dim": [{"size": "64"}]}}}}}, {"name": "MobilenetV2/expanded_conv_7/project/Conv2D/merged_input", "op": "Const", "attr": {"value": {"tensor": {"dtype": "DT_FLOAT", "tensorShape": {"dim": [{"size": "1"}, {"size": "1"}, {"size": "384"}, {"size": "64"}]}}}, "dtype": {"type": "DT_FLOAT"}}}, {"name": "MobilenetV2/expanded_conv_7/depthwise/BatchNorm/FusedBatchNorm/Offset", "op": "Const", "attr": {"value": {"tensor": {"dtype": "DT_FLOAT", "tensorShape": {"dim": [{"size": "384"}]}}}, "dtype": {"type": "DT_FLOAT"}}}, {"name": "MobilenetV2/expanded_conv_7/depthwise/BatchNorm/FusedBatchNorm/Scaled", "op": "Const", "attr": {"value": {"tensor": {"dtype": "DT_FLOAT", "tensorShape": {"dim": [{"size": "384"}]}}}, "dtype": {"type": "DT_FLOAT"}}}, {"name": "MobilenetV2/expanded_conv_7/depthwise/depthwise_weights", "op": "Const", "attr": {"value": {"tensor": {"dtype": "DT_FLOAT", "tensorShape": {"dim": [{"size": "3"}, {"size": "3"}, {"size": "384"}, {"size": "1"}]}}}, "dtype": {"type": "DT_FLOAT"}}}, {"name": "MobilenetV2/expanded_conv_7/expand/BatchNorm/FusedBatchNorm/Offset", "op": "Const", "attr": {"value": {"tensor": {"dtype": "DT_FLOAT", "tensorShape": {"dim": [{"size": "384"}]}}}, "dtype": {"type": "DT_FLOAT"}}}, {"name": "MobilenetV2/expanded_conv_7/expand/Conv2D/merged_input", "op": "Const", "attr": {"value": {"tensor": {"dtype": "DT_FLOAT", "tensorShape": {"dim": [{"size": "1"}, {"size": "1"}, {"size": "64"}, {"size": "384"}]}}}, "dtype": {"type": "DT_FLOAT"}}}, {"name": "MobilenetV2/expanded_conv_8/project/BatchNorm/FusedBatchNorm/Offset", "op": "Const", "attr": {"value": {"tensor": {"dtype": "DT_FLOAT", "tensorShape": {"dim": [{"size": "64"}]}}}, "dtype": {"type": "DT_FLOAT"}}}, {"name": "MobilenetV2/expanded_conv_8/project/Conv2D/merged_input", "op": "Const", "attr": {"value": {"tensor": {"dtype": "DT_FLOAT", "tensorShape": {"dim": [{"size": "1"}, {"size": "1"}, {"size": "384"}, {"size": "64"}]}}}, "dtype": {"type": "DT_FLOAT"}}}, {"name": "MobilenetV2/expanded_conv_8/depthwise/BatchNorm/FusedBatchNorm/Offset", "op": "Const", "attr": {"dtype": {"type": "DT_FLOAT"}, "value": {"tensor": {"dtype": "DT_FLOAT", "tensorShape": {"dim": [{"size": "384"}]}}}}}, {"name": "MobilenetV2/expanded_conv_8/depthwise/BatchNorm/FusedBatchNorm/Scaled", "op": "Const", "attr": {"value": {"tensor": {"dtype": "DT_FLOAT", "tensorShape": {"dim": [{"size": "384"}]}}}, "dtype": {"type": "DT_FLOAT"}}}, {"name": "MobilenetV2/expanded_conv_8/depthwise/depthwise_weights", "op": "Const", "attr": {"value": {"tensor": {"dtype": "DT_FLOAT", "tensorShape": {"dim": [{"size": "3"}, {"size": "3"}, {"size": "384"}, {"size": "1"}]}}}, "dtype": {"type": "DT_FLOAT"}}}, {"name": "MobilenetV2/expanded_conv_8/expand/BatchNorm/FusedBatchNorm/Offset", "op": "Const", "attr": {"value": {"tensor": {"dtype": "DT_FLOAT", "tensorShape": {"dim": [{"size": "384"}]}}}, "dtype": {"type": "DT_FLOAT"}}}, {"name": "MobilenetV2/expanded_conv_8/expand/Conv2D/merged_input", "op": "Const", "attr": {"value": {"tensor": {"dtype": "DT_FLOAT", "tensorShape": {"dim": [{"size": "1"}, {"size": "1"}, {"size": "64"}, {"size": "384"}]}}}, "dtype": {"type": "DT_FLOAT"}}}, {"name": "MobilenetV2/expanded_conv_9/project/BatchNorm/FusedBatchNorm/Offset", "op": "Const", "attr": {"dtype": {"type": "DT_FLOAT"}, "value": {"tensor": {"dtype": "DT_FLOAT", "tensorShape": {"dim": [{"size": "64"}]}}}}}, {"name": "MobilenetV2/expanded_conv_9/project/Conv2D/merged_input", "op": "Const", "attr": {"value": {"tensor": {"dtype": "DT_FLOAT", "tensorShape": {"dim": [{"size": "1"}, {"size": "1"}, {"size": "384"}, {"size": "64"}]}}}, "dtype": {"type": "DT_FLOAT"}}}, {"name": "MobilenetV2/expanded_conv_9/depthwise/BatchNorm/FusedBatchNorm/Offset", "op": "Const", "attr": {"value": {"tensor": {"dtype": "DT_FLOAT", "tensorShape": {"dim": [{"size": "384"}]}}}, "dtype": {"type": "DT_FLOAT"}}}, {"name": "MobilenetV2/expanded_conv_9/depthwise/BatchNorm/FusedBatchNorm/Scaled", "op": "Const", "attr": {"value": {"tensor": {"dtype": "DT_FLOAT", "tensorShape": {"dim": [{"size": "384"}]}}}, "dtype": {"type": "DT_FLOAT"}}}, {"name": "MobilenetV2/expanded_conv_9/depthwise/depthwise_weights", "op": "Const", "attr": {"value": {"tensor": {"dtype": "DT_FLOAT", "tensorShape": {"dim": [{"size": "3"}, {"size": "3"}, {"size": "384"}, {"size": "1"}]}}}, "dtype": {"type": "DT_FLOAT"}}}, {"name": "MobilenetV2/expanded_conv_9/expand/BatchNorm/FusedBatchNorm/Offset", "op": "Const", "attr": {"value": {"tensor": {"dtype": "DT_FLOAT", "tensorShape": {"dim": [{"size": "384"}]}}}, "dtype": {"type": "DT_FLOAT"}}}, {"name": "MobilenetV2/expanded_conv_9/expand/Conv2D/merged_input", "op": "Const", "attr": {"value": {"tensor": {"dtype": "DT_FLOAT", "tensorShape": {"dim": [{"size": "1"}, {"size": "1"}, {"size": "64"}, {"size": "384"}]}}}, "dtype": {"type": "DT_FLOAT"}}}, {"name": "MobilenetV2/expanded_conv_11/project/BatchNorm/FusedBatchNorm/Offset", "op": "Const", "attr": {"value": {"tensor": {"dtype": "DT_FLOAT", "tensorShape": {"dim": [{"size": "96"}]}}}, "dtype": {"type": "DT_FLOAT"}}}, {"name": "MobilenetV2/expanded_conv_11/project/Conv2D/merged_input", "op": "Const", "attr": {"value": {"tensor": {"dtype": "DT_FLOAT", "tensorShape": {"dim": [{"size": "1"}, {"size": "1"}, {"size": "576"}, {"size": "96"}]}}}, "dtype": {"type": "DT_FLOAT"}}}, {"name": "MobilenetV2/expanded_conv_11/depthwise/BatchNorm/FusedBatchNorm/Offset", "op": "Const", "attr": {"dtype": {"type": "DT_FLOAT"}, "value": {"tensor": {"dtype": "DT_FLOAT", "tensorShape": {"dim": [{"size": "576"}]}}}}}, {"name": "MobilenetV2/expanded_conv_11/depthwise/BatchNorm/FusedBatchNorm/Scaled", "op": "Const", "attr": {"dtype": {"type": "DT_FLOAT"}, "value": {"tensor": {"dtype": "DT_FLOAT", "tensorShape": {"dim": [{"size": "576"}]}}}}}, {"name": "MobilenetV2/expanded_conv_11/depthwise/depthwise_weights", "op": "Const", "attr": {"value": {"tensor": {"dtype": "DT_FLOAT", "tensorShape": {"dim": [{"size": "3"}, {"size": "3"}, {"size": "576"}, {"size": "1"}]}}}, "dtype": {"type": "DT_FLOAT"}}}, {"name": "MobilenetV2/expanded_conv_11/expand/BatchNorm/FusedBatchNorm/Offset", "op": "Const", "attr": {"value": {"tensor": {"dtype": "DT_FLOAT", "tensorShape": {"dim": [{"size": "576"}]}}}, "dtype": {"type": "DT_FLOAT"}}}, {"name": "MobilenetV2/expanded_conv_11/expand/Conv2D/merged_input", "op": "Const", "attr": {"value": {"tensor": {"dtype": "DT_FLOAT", "tensorShape": {"dim": [{"size": "1"}, {"size": "1"}, {"size": "96"}, {"size": "576"}]}}}, "dtype": {"type": "DT_FLOAT"}}}, {"name": "MobilenetV2/expanded_conv_12/project/BatchNorm/FusedBatchNorm/Offset", "op": "Const", "attr": {"dtype": {"type": "DT_FLOAT"}, "value": {"tensor": {"dtype": "DT_FLOAT", "tensorShape": {"dim": [{"size": "96"}]}}}}}, {"name": "MobilenetV2/expanded_conv_12/project/Conv2D/merged_input", "op": "Const", "attr": {"dtype": {"type": "DT_FLOAT"}, "value": {"tensor": {"dtype": "DT_FLOAT", "tensorShape": {"dim": [{"size": "1"}, {"size": "1"}, {"size": "576"}, {"size": "96"}]}}}}}, {"name": "MobilenetV2/expanded_conv_12/depthwise/BatchNorm/FusedBatchNorm/Offset", "op": "Const", "attr": {"value": {"tensor": {"dtype": "DT_FLOAT", "tensorShape": {"dim": [{"size": "576"}]}}}, "dtype": {"type": "DT_FLOAT"}}}, {"name": "MobilenetV2/expanded_conv_12/depthwise/BatchNorm/FusedBatchNorm/Scaled", "op": "Const", "attr": {"value": {"tensor": {"dtype": "DT_FLOAT", "tensorShape": {"dim": [{"size": "576"}]}}}, "dtype": {"type": "DT_FLOAT"}}}, {"name": "MobilenetV2/expanded_conv_12/depthwise/depthwise_weights", "op": "Const", "attr": {"value": {"tensor": {"dtype": "DT_FLOAT", "tensorShape": {"dim": [{"size": "3"}, {"size": "3"}, {"size": "576"}, {"size": "1"}]}}}, "dtype": {"type": "DT_FLOAT"}}}, {"name": "MobilenetV2/expanded_conv_12/expand/BatchNorm/FusedBatchNorm/Offset", "op": "Const", "attr": {"value": {"tensor": {"dtype": "DT_FLOAT", "tensorShape": {"dim": [{"size": "576"}]}}}, "dtype": {"type": "DT_FLOAT"}}}, {"name": "MobilenetV2/expanded_conv_12/expand/Conv2D/merged_input", "op": "Const", "attr": {"value": {"tensor": {"dtype": "DT_FLOAT", "tensorShape": {"dim": [{"size": "1"}, {"size": "1"}, {"size": "96"}, {"size": "576"}]}}}, "dtype": {"type": "DT_FLOAT"}}}, {"name": "MobilenetV2/expanded_conv_14/project/BatchNorm/FusedBatchNorm/Offset", "op": "Const", "attr": {"value": {"tensor": {"dtype": "DT_FLOAT", "tensorShape": {"dim": [{"size": "160"}]}}}, "dtype": {"type": "DT_FLOAT"}}}, {"name": "MobilenetV2/expanded_conv_14/project/Conv2D/merged_input", "op": "Const", "attr": {"value": {"tensor": {"dtype": "DT_FLOAT", "tensorShape": {"dim": [{"size": "1"}, {"size": "1"}, {"size": "960"}, {"size": "160"}]}}}, "dtype": {"type": "DT_FLOAT"}}}, {"name": "MobilenetV2/expanded_conv_14/depthwise/BatchNorm/FusedBatchNorm/Offset", "op": "Const", "attr": {"value": {"tensor": {"dtype": "DT_FLOAT", "tensorShape": {"dim": [{"size": "960"}]}}}, "dtype": {"type": "DT_FLOAT"}}}, {"name": "MobilenetV2/expanded_conv_14/depthwise/BatchNorm/FusedBatchNorm/Scaled", "op": "Const", "attr": {"value": {"tensor": {"dtype": "DT_FLOAT", "tensorShape": {"dim": [{"size": "960"}]}}}, "dtype": {"type": "DT_FLOAT"}}}, {"name": "MobilenetV2/expanded_conv_14/depthwise/depthwise_weights", "op": "Const", "attr": {"value": {"tensor": {"dtype": "DT_FLOAT", "tensorShape": {"dim": [{"size": "3"}, {"size": "3"}, {"size": "960"}, {"size": "1"}]}}}, "dtype": {"type": "DT_FLOAT"}}}, {"name": "MobilenetV2/expanded_conv_14/expand/BatchNorm/FusedBatchNorm/Offset", "op": "Const", "attr": {"value": {"tensor": {"dtype": "DT_FLOAT", "tensorShape": {"dim": [{"size": "960"}]}}}, "dtype": {"type": "DT_FLOAT"}}}, {"name": "MobilenetV2/expanded_conv_14/expand/Conv2D/merged_input", "op": "Const", "attr": {"value": {"tensor": {"dtype": "DT_FLOAT", "tensorShape": {"dim": [{"size": "1"}, {"size": "1"}, {"size": "160"}, {"size": "960"}]}}}, "dtype": {"type": "DT_FLOAT"}}}, {"name": "MobilenetV2/expanded_conv_15/project/BatchNorm/FusedBatchNorm/Offset", "op": "Const", "attr": {"dtype": {"type": "DT_FLOAT"}, "value": {"tensor": {"dtype": "DT_FLOAT", "tensorShape": {"dim": [{"size": "160"}]}}}}}, {"name": "MobilenetV2/expanded_conv_15/project/Conv2D/merged_input", "op": "Const", "attr": {"value": {"tensor": {"dtype": "DT_FLOAT", "tensorShape": {"dim": [{"size": "1"}, {"size": "1"}, {"size": "960"}, {"size": "160"}]}}}, "dtype": {"type": "DT_FLOAT"}}}, {"name": "MobilenetV2/expanded_conv_15/depthwise/BatchNorm/FusedBatchNorm/Offset", "op": "Const", "attr": {"value": {"tensor": {"dtype": "DT_FLOAT", "tensorShape": {"dim": [{"size": "960"}]}}}, "dtype": {"type": "DT_FLOAT"}}}, {"name": "MobilenetV2/expanded_conv_15/depthwise/BatchNorm/FusedBatchNorm/Scaled", "op": "Const", "attr": {"value": {"tensor": {"dtype": "DT_FLOAT", "tensorShape": {"dim": [{"size": "960"}]}}}, "dtype": {"type": "DT_FLOAT"}}}, {"name": "MobilenetV2/expanded_conv_15/depthwise/depthwise_weights", "op": "Const", "attr": {"value": {"tensor": {"dtype": "DT_FLOAT", "tensorShape": {"dim": [{"size": "3"}, {"size": "3"}, {"size": "960"}, {"size": "1"}]}}}, "dtype": {"type": "DT_FLOAT"}}}, {"name": "MobilenetV2/expanded_conv_15/expand/BatchNorm/FusedBatchNorm/Offset", "op": "Const", "attr": {"value": {"tensor": {"dtype": "DT_FLOAT", "tensorShape": {"dim": [{"size": "960"}]}}}, "dtype": {"type": "DT_FLOAT"}}}, {"name": "MobilenetV2/expanded_conv_15/expand/Conv2D/merged_input", "op": "Const", "attr": {"dtype": {"type": "DT_FLOAT"}, "value": {"tensor": {"dtype": "DT_FLOAT", "tensorShape": {"dim": [{"size": "1"}, {"size": "1"}, {"size": "160"}, {"size": "960"}]}}}}}, {"name": "ResizeBilinear/size", "op": "Const", "attr": {"value": {"tensor": {"dtype": "DT_INT32", "tensorShape": {"dim": [{"size": "2"}]}}}, "dtype": {"type": "DT_INT32"}}}, {"name": "image_pooling/BatchNorm/FusedBatchNorm/Offset", "op": "Const", "attr": {"value": {"tensor": {"dtype": "DT_FLOAT", "tensorShape": {"dim": [{"size": "256"}]}}}, "dtype": {"type": "DT_FLOAT"}}}, {"name": "image_pooling/Conv2D/merged_input", "op": "Const", "attr": {"value": {"tensor": {"dtype": "DT_FLOAT", "tensorShape": {"dim": [{"size": "1"}, {"size": "1"}, {"size": "320"}, {"size": "256"}]}}}, "dtype": {"type": "DT_FLOAT"}}}, {"name": "Shape", "op": "Shape", "input": ["ImageTensor"], "attr": {"out_type": {"type": "DT_INT32"}, "T": {"type": "DT_UINT8"}}}, {"name": "Squeeze", "op": "Squeeze", "input": ["ImageTensor"], "attr": {"squeeze_dims": {"list": {"i": ["0"]}}, "T": {"type": "DT_UINT8"}}}, {"name": "strided_slice", "op": "StridedSlice", "input": ["Shape", "strided_slice_2/stack", "strided_slice/stack_1", "strided_slice_2/stack"], "attr": {"new_axis_mask": {"i": "0"}, "end_mask": {"i": "0"}, "Index": {"type": "DT_INT32"}, "T": {"type": "DT_INT32"}, "shrink_axis_mask": {"i": "0"}, "begin_mask": {"i": "0"}, "ellipsis_mask": {"i": "0"}}}, {"name": "Shape_3", "op": "Shape", "input": ["Squeeze"], "attr": {"T": {"type": "DT_UINT8"}, "out_type": {"type": "DT_INT32"}}}, {"name": "Cast", "op": "Cast", "input": ["Squeeze"], "attr": {"SrcT": {"type": "DT_UINT8"}, "Truncate": {"b": false}, "DstT": {"type": "DT_FLOAT"}}}, {"name": "strided_slice_5", "op": "StridedSlice", "input": ["Shape_3", "strided_slice_1/stack", "strided_slice_2/stack_1", "strided_slice_2/stack"], "attr": {"new_axis_mask": {"i": "0"}, "end_mask": {"i": "0"}, "Index": {"type": "DT_INT32"}, "T": {"type": "DT_INT32"}, "shrink_axis_mask": {"i": "0"}, "begin_mask": {"i": "1"}, "ellipsis_mask": {"i": "0"}}}, {"name": "sub_2", "op": "Sub", "input": ["Cast", "Reshape"], "attr": {"T": {"type": "DT_FLOAT"}}}, {"name": "Shape_1", "op": "Shape", "input": ["Cast"], "attr": {"T": {"type": "DT_FLOAT"}, "out_type": {"type": "DT_INT32"}}}, {"name": "strided_slice_8", "op": "StridedSlice", "input": ["strided_slice_5", "strided_slice_2/stack", "strided_slice_2/stack_1", "strided_slice_2/stack"], "attr": {"T": {"type": "DT_INT32"}, "Index": {"type": "DT_INT32"}, "shrink_axis_mask": {"i": "1"}, "ellipsis_mask": {"i": "0"}, "begin_mask": {"i": "0"}, "new_axis_mask": {"i": "0"}, "end_mask": {"i": "0"}}}, {"name": "strided_slice_7", "op": "StridedSlice", "input": ["strided_slice_5", "strided_slice_1/stack", "strided_slice_2/stack", "strided_slice_2/stack"], "attr": {"T": {"type": "DT_INT32"}, "Index": {"type": "DT_INT32"}, "shrink_axis_mask": {"i": "1"}, "begin_mask": {"i": "0"}, "ellipsis_mask": {"i": "0"}, "new_axis_mask": {"i": "0"}, "end_mask": {"i": "0"}}}, {"name": "Shape_2", "op": "Shape", "input": ["sub_2"], "attr": {"T": {"type": "DT_FLOAT"}, "out_type": {"type": "DT_INT32"}}}, {"name": "strided_slice_2", "op": "StridedSlice", "input": ["Shape_1", "strided_slice_2/stack", "strided_slice_2/stack_1", "strided_slice_2/stack"], "attr": {"shrink_axis_mask": {"i": "1"}, "ellipsis_mask": {"i": "0"}, "begin_mask": {"i": "0"}, "new_axis_mask": {"i": "0"}, "end_mask": {"i": "0"}, "T": {"type": "DT_INT32"}, "Index": {"type": "DT_INT32"}}}, {"name": "strided_slice_1", "op": "StridedSlice", "input": ["Shape_1", "strided_slice_1/stack", "strided_slice_2/stack", "strided_slice_2/stack"], "attr": {"Index": {"type": "DT_INT32"}, "T": {"type": "DT_INT32"}, "shrink_axis_mask": {"i": "1"}, "begin_mask": {"i": "0"}, "ellipsis_mask": {"i": "0"}, "new_axis_mask": {"i": "0"}, "end_mask": {"i": "0"}}}, {"name": "Slice/size", "op": "Pack", "input": ["Slice/size/0", "strided_slice_7", "strided_slice_8"], "attr": {"T": {"type": "DT_INT32"}, "axis": {"i": "0"}, "N": {"i": "3"}}}, {"name": "strided_slice_4", "op": "StridedSlice", "input": ["Shape_2", "strided_slice_2/stack", "strided_slice_2/stack_1", "strided_slice_2/stack"], "attr": {"shrink_axis_mask": {"i": "1"}, "begin_mask": {"i": "0"}, "ellipsis_mask": {"i": "0"}, "new_axis_mask": {"i": "0"}, "end_mask": {"i": "0"}, "Index": {"type": "DT_INT32"}, "T": {"type": "DT_INT32"}}}, {"name": "strided_slice_3", "op": "StridedSlice", "input": ["Shape_2", "strided_slice_1/stack", "strided_slice_2/stack", "strided_slice_2/stack"], "attr": {"shrink_axis_mask": {"i": "1"}, "begin_mask": {"i": "0"}, "ellipsis_mask": {"i": "0"}, "new_axis_mask": {"i": "0"}, "end_mask": {"i": "0"}, "T": {"type": "DT_INT32"}, "Index": {"type": "DT_INT32"}}}, {"name": "sub_1", "op": "Sub", "input": ["sub_1/x", "strided_slice_2"], "attr": {"T": {"type": "DT_INT32"}}}, {"name": "sub", "op": "Sub", "input": ["sub_1/x", "strided_slice_1"], "attr": {"T": {"type": "DT_INT32"}}}, {"name": "Maximum_1", "op": "Maximum", "input": ["sub_1", "stack/0"], "attr": {"T": {"type": "DT_INT32"}}}, {"name": "Maximum", "op": "Maximum", "input": ["sub", "stack/0"], "attr": {"T": {"type": "DT_INT32"}}}, {"name": "add_1", "op": "Add", "input": ["strided_slice_2", "Maximum_1"], "attr": {"T": {"type": "DT_INT32"}}}, {"name": "add", "op": "Add", "input": ["strided_slice_1", "Maximum"], "attr": {"T": {"type": "DT_INT32"}}}, {"name": "sub_4", "op": "Sub", "input": ["add_1", "strided_slice_4"], "attr": {"T": {"type": "DT_INT32"}}}, {"name": "sub_6", "op": "Sub", "input": ["add", "strided_slice_3"], "attr": {"T": {"type": "DT_INT32"}}}, {"name": "stack_1", "op": "Pack", "input": ["stack/0", "sub_4"], "attr": {"T": {"type": "DT_INT32"}, "axis": {"i": "0"}, "N": {"i": "2"}}}, {"name": "stack", "op": "Pack", "input": ["stack/0", "sub_6"], "attr": {"N": {"i": "2"}, "T": {"type": "DT_INT32"}, "axis": {"i": "0"}}}, {"name": "stack_3", "op": "Pack", "input": ["stack", "stack_1", "stack_2"], "attr": {"N": {"i": "3"}, "T": {"type": "DT_INT32"}, "axis": {"i": "0"}}}, {"name": "Pad", "op": "Pad", "input": ["sub_2", "stack_3"], "attr": {"Tpaddings": {"type": "DT_INT32"}, "T": {"type": "DT_FLOAT"}}}, {"name": "add_2", "op": "Add", "input": ["Pad", "Reshape"], "attr": {"T": {"type": "DT_FLOAT"}}}, {"name": "ExpandDims", "op": "ExpandDims", "input": ["add_2", "stack/0"], "attr": {"T": {"type": "DT_FLOAT"}, "Tdim": {"type": "DT_INT32"}}}, {"name": "mul", "op": "Mul", "input": ["mul/x", "ExpandDims"], "attr": {"T": {"type": "DT_FLOAT"}}}, {"name": "sub_7", "op": "Sub", "input": ["mul", "sub_7/y"], "attr": {"T": {"type": "DT_FLOAT"}}}, {"name": "MobilenetV2/Conv/BatchNorm/FusedBatchNorm/Mul", "op": "Conv2D", "input": ["sub_7", "MobilenetV2/Conv/Conv2D/merged_input"], "attr": {"dilations": {"list": {"i": ["1", "1", "1", "1"]}}, "T": {"type": "DT_FLOAT"}, "strides": {"list": {"i": ["1", "2", "2", "1"]}}, "data_format": {"s": "TkhXQw=="}, "use_cudnn_on_gpu": {"b": true}, "padding": {"s": "U0FNRQ=="}}}, {"name": "MobilenetV2/Conv/BatchNorm/FusedBatchNorm", "op": "Add", "input": ["MobilenetV2/Conv/BatchNorm/FusedBatchNorm/Mul", "MobilenetV2/Conv/BatchNorm/FusedBatchNorm/Offset"], "attr": {"T": {"type": "DT_FLOAT"}}}, {"name": "MobilenetV2/Conv/Relu6", "op": "Relu6", "input": ["MobilenetV2/Conv/BatchNorm/FusedBatchNorm"], "attr": {"T": {"type": "DT_FLOAT"}}}, {"name": "MobilenetV2/expanded_conv/depthwise/depthwise", "op": "DepthwiseConv2dNative", "input": ["MobilenetV2/Conv/Relu6", "MobilenetV2/expanded_conv/depthwise/depthwise_weights"], "attr": {"T": {"type": "DT_FLOAT"}, "data_format": {"s": "TkhXQw=="}, "strides": {"list": {"i": ["1", "1", "1", "1"]}}, "padding": {"s": "U0FNRQ=="}, "dilations": {"list": {"i": ["1", "1", "1", "1"]}}}}, {"name": "MobilenetV2/expanded_conv/depthwise/BatchNorm/FusedBatchNorm/Mul", "op": "Mul", "input": ["MobilenetV2/expanded_conv/depthwise/depthwise", "MobilenetV2/expanded_conv/depthwise/BatchNorm/FusedBatchNorm/Scaled"], "attr": {"T": {"type": "DT_FLOAT"}}}, {"name": "MobilenetV2/expanded_conv/depthwise/BatchNorm/FusedBatchNorm", "op": "Add", "input": ["MobilenetV2/expanded_conv/depthwise/BatchNorm/FusedBatchNorm/Mul", "MobilenetV2/expanded_conv/depthwise/BatchNorm/FusedBatchNorm/Offset"], "attr": {"T": {"type": "DT_FLOAT"}}}, {"name": "MobilenetV2/expanded_conv/depthwise/Relu6", "op": "Relu6", "input": ["MobilenetV2/expanded_conv/depthwise/BatchNorm/FusedBatchNorm"], "attr": {"T": {"type": "DT_FLOAT"}}}, {"name": "MobilenetV2/expanded_conv/project/BatchNorm/FusedBatchNorm/Mul", "op": "Conv2D", "input": ["MobilenetV2/expanded_conv/depthwise/Relu6", "MobilenetV2/expanded_conv/project/Conv2D/merged_input"], "attr": {"dilations": {"list": {"i": ["1", "1", "1", "1"]}}, "T": {"type": "DT_FLOAT"}, "strides": {"list": {"i": ["1", "1", "1", "1"]}}, "data_format": {"s": "TkhXQw=="}, "use_cudnn_on_gpu": {"b": true}, "padding": {"s": "U0FNRQ=="}}}, {"name": "MobilenetV2/expanded_conv/project/BatchNorm/FusedBatchNorm", "op": "Add", "input": ["MobilenetV2/expanded_conv/project/BatchNorm/FusedBatchNorm/Mul", "MobilenetV2/expanded_conv/project/BatchNorm/FusedBatchNorm/Offset"], "attr": {"T": {"type": "DT_FLOAT"}}}, {"name": "MobilenetV2/expanded_conv_1/expand/BatchNorm/FusedBatchNorm/Mul", "op": "Conv2D", "input": ["MobilenetV2/expanded_conv/project/BatchNorm/FusedBatchNorm", "MobilenetV2/expanded_conv_1/expand/Conv2D/merged_input"], "attr": {"dilations": {"list": {"i": ["1", "1", "1", "1"]}}, "T": {"type": "DT_FLOAT"}, "data_format": {"s": "TkhXQw=="}, "strides": {"list": {"i": ["1", "1", "1", "1"]}}, "use_cudnn_on_gpu": {"b": true}, "padding": {"s": "U0FNRQ=="}}}, {"name": "MobilenetV2/expanded_conv_1/expand/BatchNorm/FusedBatchNorm", "op": "Add", "input": ["MobilenetV2/expanded_conv_1/expand/BatchNorm/FusedBatchNorm/Mul", "MobilenetV2/expanded_conv_1/expand/BatchNorm/FusedBatchNorm/Offset"], "attr": {"T": {"type": "DT_FLOAT"}}}, {"name": "MobilenetV2/expanded_conv_1/expand/Relu6", "op": "Relu6", "input": ["MobilenetV2/expanded_conv_1/expand/BatchNorm/FusedBatchNorm"], "attr": {"T": {"type": "DT_FLOAT"}}}, {"name": "MobilenetV2/expanded_conv_1/depthwise/depthwise", "op": "DepthwiseConv2dNative", "input": ["MobilenetV2/expanded_conv_1/expand/Relu6", "MobilenetV2/expanded_conv_1/depthwise/depthwise_weights"], "attr": {"data_format": {"s": "TkhXQw=="}, "strides": {"list": {"i": ["1", "2", "2", "1"]}}, "padding": {"s": "U0FNRQ=="}, "dilations": {"list": {"i": ["1", "1", "1", "1"]}}, "T": {"type": "DT_FLOAT"}}}, {"name": "MobilenetV2/expanded_conv_1/depthwise/BatchNorm/FusedBatchNorm/Mul", "op": "Mul", "input": ["MobilenetV2/expanded_conv_1/depthwise/depthwise", "MobilenetV2/expanded_conv_1/depthwise/BatchNorm/FusedBatchNorm/Scaled"], "attr": {"T": {"type": "DT_FLOAT"}}}, {"name": "MobilenetV2/expanded_conv_1/depthwise/BatchNorm/FusedBatchNorm", "op": "Add", "input": ["MobilenetV2/expanded_conv_1/depthwise/BatchNorm/FusedBatchNorm/Mul", "MobilenetV2/expanded_conv_1/depthwise/BatchNorm/FusedBatchNorm/Offset"], "attr": {"T": {"type": "DT_FLOAT"}}}, {"name": "MobilenetV2/expanded_conv_1/depthwise/Relu6", "op": "Relu6", "input": ["MobilenetV2/expanded_conv_1/depthwise/BatchNorm/FusedBatchNorm"], "attr": {"T": {"type": "DT_FLOAT"}}}, {"name": "MobilenetV2/expanded_conv_1/project/BatchNorm/FusedBatchNorm/Mul", "op": "Conv2D", "input": ["MobilenetV2/expanded_conv_1/depthwise/Relu6", "MobilenetV2/expanded_conv_1/project/Conv2D/merged_input"], "attr": {"T": {"type": "DT_FLOAT"}, "strides": {"list": {"i": ["1", "1", "1", "1"]}}, "data_format": {"s": "TkhXQw=="}, "use_cudnn_on_gpu": {"b": true}, "padding": {"s": "U0FNRQ=="}, "dilations": {"list": {"i": ["1", "1", "1", "1"]}}}}, {"name": "MobilenetV2/expanded_conv_1/project/BatchNorm/FusedBatchNorm", "op": "Add", "input": ["MobilenetV2/expanded_conv_1/project/BatchNorm/FusedBatchNorm/Mul", "MobilenetV2/expanded_conv_1/project/BatchNorm/FusedBatchNorm/Offset"], "attr": {"T": {"type": "DT_FLOAT"}}}, {"name": "MobilenetV2/expanded_conv_2/expand/BatchNorm/FusedBatchNorm/Mul", "op": "Conv2D", "input": ["MobilenetV2/expanded_conv_1/project/BatchNorm/FusedBatchNorm", "MobilenetV2/expanded_conv_2/expand/Conv2D/merged_input"], "attr": {"dilations": {"list": {"i": ["1", "1", "1", "1"]}}, "T": {"type": "DT_FLOAT"}, "strides": {"list": {"i": ["1", "1", "1", "1"]}}, "data_format": {"s": "TkhXQw=="}, "use_cudnn_on_gpu": {"b": true}, "padding": {"s": "U0FNRQ=="}}}, {"name": "MobilenetV2/expanded_conv_2/expand/BatchNorm/FusedBatchNorm", "op": "Add", "input": ["MobilenetV2/expanded_conv_2/expand/BatchNorm/FusedBatchNorm/Mul", "MobilenetV2/expanded_conv_2/expand/BatchNorm/FusedBatchNorm/Offset"], "attr": {"T": {"type": "DT_FLOAT"}}}, {"name": "MobilenetV2/expanded_conv_2/expand/Relu6", "op": "Relu6", "input": ["MobilenetV2/expanded_conv_2/expand/BatchNorm/FusedBatchNorm"], "attr": {"T": {"type": "DT_FLOAT"}}}, {"name": "MobilenetV2/expanded_conv_2/depthwise/depthwise", "op": "DepthwiseConv2dNative", "input": ["MobilenetV2/expanded_conv_2/expand/Relu6", "MobilenetV2/expanded_conv_2/depthwise/depthwise_weights"], "attr": {"data_format": {"s": "TkhXQw=="}, "strides": {"list": {"i": ["1", "1", "1", "1"]}}, "padding": {"s": "U0FNRQ=="}, "dilations": {"list": {"i": ["1", "1", "1", "1"]}}, "T": {"type": "DT_FLOAT"}}}, {"name": "MobilenetV2/expanded_conv_2/depthwise/BatchNorm/FusedBatchNorm/Mul", "op": "Mul", "input": ["MobilenetV2/expanded_conv_2/depthwise/depthwise", "MobilenetV2/expanded_conv_2/depthwise/BatchNorm/FusedBatchNorm/Scaled"], "attr": {"T": {"type": "DT_FLOAT"}}}, {"name": "MobilenetV2/expanded_conv_2/depthwise/BatchNorm/FusedBatchNorm", "op": "Add", "input": ["MobilenetV2/expanded_conv_2/depthwise/BatchNorm/FusedBatchNorm/Mul", "MobilenetV2/expanded_conv_2/depthwise/BatchNorm/FusedBatchNorm/Offset"], "attr": {"T": {"type": "DT_FLOAT"}}}, {"name": "MobilenetV2/expanded_conv_2/depthwise/Relu6", "op": "Relu6", "input": ["MobilenetV2/expanded_conv_2/depthwise/BatchNorm/FusedBatchNorm"], "attr": {"T": {"type": "DT_FLOAT"}}}, {"name": "decoder/feature_projection0/BatchNorm/FusedBatchNorm/Mul", "op": "Conv2D", "input": ["MobilenetV2/expanded_conv_2/depthwise/Relu6", "decoder/feature_projection0/Conv2D/merged_input"], "attr": {"padding": {"s": "U0FNRQ=="}, "dilations": {"list": {"i": ["1", "1", "1", "1"]}}, "T": {"type": "DT_FLOAT"}, "data_format": {"s": "TkhXQw=="}, "strides": {"list": {"i": ["1", "1", "1", "1"]}}, "use_cudnn_on_gpu": {"b": true}}}, {"name": "MobilenetV2/expanded_conv_2/project/BatchNorm/FusedBatchNorm/Mul", "op": "Conv2D", "input": ["MobilenetV2/expanded_conv_2/depthwise/Relu6", "MobilenetV2/expanded_conv_2/project/Conv2D/merged_input"], "attr": {"dilations": {"list": {"i": ["1", "1", "1", "1"]}}, "T": {"type": "DT_FLOAT"}, "data_format": {"s": "TkhXQw=="}, "strides": {"list": {"i": ["1", "1", "1", "1"]}}, "use_cudnn_on_gpu": {"b": true}, "padding": {"s": "U0FNRQ=="}}}, {"name": "decoder/feature_projection0/BatchNorm/FusedBatchNorm", "op": "Add", "input": ["decoder/feature_projection0/BatchNorm/FusedBatchNorm/Mul", "decoder/feature_projection0/BatchNorm/FusedBatchNorm/Offset"], "attr": {"T": {"type": "DT_FLOAT"}}}, {"name": "MobilenetV2/expanded_conv_2/ArithmeticOptimizer/AddOpsRewrite_Leaf_1_add", "op": "AddN", "input": ["MobilenetV2/expanded_conv_2/project/BatchNorm/FusedBatchNorm/Mul", "MobilenetV2/expanded_conv_1/project/BatchNorm/FusedBatchNorm"], "attr": {"T": {"type": "DT_FLOAT"}, "N": {"i": "2"}, "_grappler:ArithmeticOptimizer:AddOpsRewriteStage": {"b": true}}}, {"name": "decoder/feature_projection0/Relu", "op": "Relu", "input": ["decoder/feature_projection0/BatchNorm/FusedBatchNorm"], "attr": {"T": {"type": "DT_FLOAT"}}}, {"name": "MobilenetV2/expanded_conv_2/ArithmeticOptimizer/AddOpsRewrite_add", "op": "Add", "input": ["MobilenetV2/expanded_conv_2/project/BatchNorm/FusedBatchNorm/Offset", "MobilenetV2/expanded_conv_2/ArithmeticOptimizer/AddOpsRewrite_Leaf_1_add"], "attr": {"T": {"type": "DT_FLOAT"}, "_grappler:ArithmeticOptimizer:AddOpsRewriteStage": {"b": true}}}, {"name": "decoder/ResizeBilinear_1", "op": "ResizeBilinear", "input": ["decoder/feature_projection0/Relu", "decoder/ResizeBilinear/size"], "attr": {"align_corners": {"b": true}, "T": {"type": "DT_FLOAT"}}}, {"name": "MobilenetV2/expanded_conv_3/expand/BatchNorm/FusedBatchNorm/Mul", "op": "Conv2D", "input": ["MobilenetV2/expanded_conv_2/ArithmeticOptimizer/AddOpsRewrite_add", "MobilenetV2/expanded_conv_3/expand/Conv2D/merged_input"], "attr": {"data_format": {"s": "TkhXQw=="}, "strides": {"list": {"i": ["1", "1", "1", "1"]}}, "use_cudnn_on_gpu": {"b": true}, "padding": {"s": "U0FNRQ=="}, "dilations": {"list": {"i": ["1", "1", "1", "1"]}}, "T": {"type": "DT_FLOAT"}}}, {"name": "MobilenetV2/expanded_conv_3/expand/BatchNorm/FusedBatchNorm", "op": "Add", "input": ["MobilenetV2/expanded_conv_3/expand/BatchNorm/FusedBatchNorm/Mul", "MobilenetV2/expanded_conv_3/expand/BatchNorm/FusedBatchNorm/Offset"], "attr": {"T": {"type": "DT_FLOAT"}}}, {"name": "MobilenetV2/expanded_conv_3/expand/Relu6", "op": "Relu6", "input": ["MobilenetV2/expanded_conv_3/expand/BatchNorm/FusedBatchNorm"], "attr": {"T": {"type": "DT_FLOAT"}}}, {"name": "MobilenetV2/expanded_conv_3/depthwise/depthwise", "op": "DepthwiseConv2dNative", "input": ["MobilenetV2/expanded_conv_3/expand/Relu6", "MobilenetV2/expanded_conv_3/depthwise/depthwise_weights"], "attr": {"T": {"type": "DT_FLOAT"}, "data_format": {"s": "TkhXQw=="}, "strides": {"list": {"i": ["1", "2", "2", "1"]}}, "dilations": {"list": {"i": ["1", "1", "1", "1"]}}, "padding": {"s": "U0FNRQ=="}}}, {"name": "MobilenetV2/expanded_conv_3/depthwise/BatchNorm/FusedBatchNorm/Mul", "op": "Mul", "input": ["MobilenetV2/expanded_conv_3/depthwise/depthwise", "MobilenetV2/expanded_conv_3/depthwise/BatchNorm/FusedBatchNorm/Scaled"], "attr": {"T": {"type": "DT_FLOAT"}}}, {"name": "MobilenetV2/expanded_conv_3/depthwise/BatchNorm/FusedBatchNorm", "op": "Add", "input": ["MobilenetV2/expanded_conv_3/depthwise/BatchNorm/FusedBatchNorm/Mul", "MobilenetV2/expanded_conv_3/depthwise/BatchNorm/FusedBatchNorm/Offset"], "attr": {"T": {"type": "DT_FLOAT"}}}, {"name": "MobilenetV2/expanded_conv_3/depthwise/Relu6", "op": "Relu6", "input": ["MobilenetV2/expanded_conv_3/depthwise/BatchNorm/FusedBatchNorm"], "attr": {"T": {"type": "DT_FLOAT"}}}, {"name": "MobilenetV2/expanded_conv_3/project/BatchNorm/FusedBatchNorm/Mul", "op": "Conv2D", "input": ["MobilenetV2/expanded_conv_3/depthwise/Relu6", "MobilenetV2/expanded_conv_3/project/Conv2D/merged_input"], "attr": {"strides": {"list": {"i": ["1", "1", "1", "1"]}}, "data_format": {"s": "TkhXQw=="}, "use_cudnn_on_gpu": {"b": true}, "padding": {"s": "U0FNRQ=="}, "dilations": {"list": {"i": ["1", "1", "1", "1"]}}, "T": {"type": "DT_FLOAT"}}}, {"name": "MobilenetV2/expanded_conv_3/project/BatchNorm/FusedBatchNorm", "op": "Add", "input": ["MobilenetV2/expanded_conv_3/project/BatchNorm/FusedBatchNorm/Mul", "MobilenetV2/expanded_conv_3/project/BatchNorm/FusedBatchNorm/Offset"], "attr": {"T": {"type": "DT_FLOAT"}}}, {"name": "MobilenetV2/expanded_conv_4/expand/BatchNorm/FusedBatchNorm/Mul", "op": "Conv2D", "input": ["MobilenetV2/expanded_conv_3/project/BatchNorm/FusedBatchNorm", "MobilenetV2/expanded_conv_4/expand/Conv2D/merged_input"], "attr": {"padding": {"s": "U0FNRQ=="}, "dilations": {"list": {"i": ["1", "1", "1", "1"]}}, "T": {"type": "DT_FLOAT"}, "data_format": {"s": "TkhXQw=="}, "strides": {"list": {"i": ["1", "1", "1", "1"]}}, "use_cudnn_on_gpu": {"b": true}}}, {"name": "MobilenetV2/expanded_conv_4/expand/BatchNorm/FusedBatchNorm", "op": "Add", "input": ["MobilenetV2/expanded_conv_4/expand/BatchNorm/FusedBatchNorm/Mul", "MobilenetV2/expanded_conv_4/expand/BatchNorm/FusedBatchNorm/Offset"], "attr": {"T": {"type": "DT_FLOAT"}}}, {"name": "MobilenetV2/expanded_conv_4/expand/Relu6", "op": "Relu6", "input": ["MobilenetV2/expanded_conv_4/expand/BatchNorm/FusedBatchNorm"], "attr": {"T": {"type": "DT_FLOAT"}}}, {"name": "MobilenetV2/expanded_conv_4/depthwise/depthwise", "op": "DepthwiseConv2dNative", "input": ["MobilenetV2/expanded_conv_4/expand/Relu6", "MobilenetV2/expanded_conv_4/depthwise/depthwise_weights"], "attr": {"dilations": {"list": {"i": ["1", "1", "1", "1"]}}, "padding": {"s": "U0FNRQ=="}, "T": {"type": "DT_FLOAT"}, "strides": {"list": {"i": ["1", "1", "1", "1"]}}, "data_format": {"s": "TkhXQw=="}}}, {"name": "MobilenetV2/expanded_conv_4/depthwise/BatchNorm/FusedBatchNorm/Mul", "op": "Mul", "input": ["MobilenetV2/expanded_conv_4/depthwise/depthwise", "MobilenetV2/expanded_conv_4/depthwise/BatchNorm/FusedBatchNorm/Scaled"], "attr": {"T": {"type": "DT_FLOAT"}}}, {"name": "MobilenetV2/expanded_conv_4/depthwise/BatchNorm/FusedBatchNorm", "op": "Add", "input": ["MobilenetV2/expanded_conv_4/depthwise/BatchNorm/FusedBatchNorm/Mul", "MobilenetV2/expanded_conv_4/depthwise/BatchNorm/FusedBatchNorm/Offset"], "attr": {"T": {"type": "DT_FLOAT"}}}, {"name": "MobilenetV2/expanded_conv_4/depthwise/Relu6", "op": "Relu6", "input": ["MobilenetV2/expanded_conv_4/depthwise/BatchNorm/FusedBatchNorm"], "attr": {"T": {"type": "DT_FLOAT"}}}, {"name": "MobilenetV2/expanded_conv_4/project/BatchNorm/FusedBatchNorm/Mul", "op": "Conv2D", "input": ["MobilenetV2/expanded_conv_4/depthwise/Relu6", "MobilenetV2/expanded_conv_4/project/Conv2D/merged_input"], "attr": {"dilations": {"list": {"i": ["1", "1", "1", "1"]}}, "T": {"type": "DT_FLOAT"}, "strides": {"list": {"i": ["1", "1", "1", "1"]}}, "data_format": {"s": "TkhXQw=="}, "use_cudnn_on_gpu": {"b": true}, "padding": {"s": "U0FNRQ=="}}}, {"name": "MobilenetV2/expanded_conv_4/ArithmeticOptimizer/AddOpsRewrite_Leaf_1_add", "op": "AddN", "input": ["MobilenetV2/expanded_conv_4/project/BatchNorm/FusedBatchNorm/Mul", "MobilenetV2/expanded_conv_3/project/BatchNorm/FusedBatchNorm"], "attr": {"N": {"i": "2"}, "_grappler:ArithmeticOptimizer:AddOpsRewriteStage": {"b": true}, "T": {"type": "DT_FLOAT"}}}, {"name": "MobilenetV2/expanded_conv_4/ArithmeticOptimizer/AddOpsRewrite_add", "op": "Add", "input": ["MobilenetV2/expanded_conv_4/project/BatchNorm/FusedBatchNorm/Offset", "MobilenetV2/expanded_conv_4/ArithmeticOptimizer/AddOpsRewrite_Leaf_1_add"], "attr": {"T": {"type": "DT_FLOAT"}, "_grappler:ArithmeticOptimizer:AddOpsRewriteStage": {"b": true}}}, {"name": "MobilenetV2/expanded_conv_5/expand/BatchNorm/FusedBatchNorm/Mul", "op": "Conv2D", "input": ["MobilenetV2/expanded_conv_4/ArithmeticOptimizer/AddOpsRewrite_add", "MobilenetV2/expanded_conv_5/expand/Conv2D/merged_input"], "attr": {"T": {"type": "DT_FLOAT"}, "strides": {"list": {"i": ["1", "1", "1", "1"]}}, "data_format": {"s": "TkhXQw=="}, "use_cudnn_on_gpu": {"b": true}, "padding": {"s": "U0FNRQ=="}, "dilations": {"list": {"i": ["1", "1", "1", "1"]}}}}, {"name": "MobilenetV2/expanded_conv_5/expand/BatchNorm/FusedBatchNorm", "op": "Add", "input": ["MobilenetV2/expanded_conv_5/expand/BatchNorm/FusedBatchNorm/Mul", "MobilenetV2/expanded_conv_5/expand/BatchNorm/FusedBatchNorm/Offset"], "attr": {"T": {"type": "DT_FLOAT"}}}, {"name": "MobilenetV2/expanded_conv_5/expand/Relu6", "op": "Relu6", "input": ["MobilenetV2/expanded_conv_5/expand/BatchNorm/FusedBatchNorm"], "attr": {"T": {"type": "DT_FLOAT"}}}, {"name": "MobilenetV2/expanded_conv_5/depthwise/depthwise", "op": "DepthwiseConv2dNative", "input": ["MobilenetV2/expanded_conv_5/expand/Relu6", "MobilenetV2/expanded_conv_5/depthwise/depthwise_weights"], "attr": {"data_format": {"s": "TkhXQw=="}, "strides": {"list": {"i": ["1", "1", "1", "1"]}}, "dilations": {"list": {"i": ["1", "1", "1", "1"]}}, "padding": {"s": "U0FNRQ=="}, "T": {"type": "DT_FLOAT"}}}, {"name": "MobilenetV2/expanded_conv_5/depthwise/BatchNorm/FusedBatchNorm/Mul", "op": "Mul", "input": ["MobilenetV2/expanded_conv_5/depthwise/depthwise", "MobilenetV2/expanded_conv_5/depthwise/BatchNorm/FusedBatchNorm/Scaled"], "attr": {"T": {"type": "DT_FLOAT"}}}, {"name": "MobilenetV2/expanded_conv_5/depthwise/BatchNorm/FusedBatchNorm", "op": "Add", "input": ["MobilenetV2/expanded_conv_5/depthwise/BatchNorm/FusedBatchNorm/Mul", "MobilenetV2/expanded_conv_5/depthwise/BatchNorm/FusedBatchNorm/Offset"], "attr": {"T": {"type": "DT_FLOAT"}}}, {"name": "MobilenetV2/expanded_conv_5/depthwise/Relu6", "op": "Relu6", "input": ["MobilenetV2/expanded_conv_5/depthwise/BatchNorm/FusedBatchNorm"], "attr": {"T": {"type": "DT_FLOAT"}}}, {"name": "MobilenetV2/expanded_conv_5/project/BatchNorm/FusedBatchNorm/Mul", "op": "Conv2D", "input": ["MobilenetV2/expanded_conv_5/depthwise/Relu6", "MobilenetV2/expanded_conv_5/project/Conv2D/merged_input"], "attr": {"dilations": {"list": {"i": ["1", "1", "1", "1"]}}, "T": {"type": "DT_FLOAT"}, "strides": {"list": {"i": ["1", "1", "1", "1"]}}, "data_format": {"s": "TkhXQw=="}, "use_cudnn_on_gpu": {"b": true}, "padding": {"s": "U0FNRQ=="}}}, {"name": "MobilenetV2/expanded_conv_5/ArithmeticOptimizer/AddOpsRewrite_Leaf_1_add", "op": "AddN", "input": ["MobilenetV2/expanded_conv_5/project/BatchNorm/FusedBatchNorm/Mul", "MobilenetV2/expanded_conv_4/ArithmeticOptimizer/AddOpsRewrite_add"], "attr": {"N": {"i": "2"}, "_grappler:ArithmeticOptimizer:AddOpsRewriteStage": {"b": true}, "T": {"type": "DT_FLOAT"}}}, {"name": "MobilenetV2/expanded_conv_5/ArithmeticOptimizer/AddOpsRewrite_add", "op": "Add", "input": ["MobilenetV2/expanded_conv_5/project/BatchNorm/FusedBatchNorm/Offset", "MobilenetV2/expanded_conv_5/ArithmeticOptimizer/AddOpsRewrite_Leaf_1_add"], "attr": {"T": {"type": "DT_FLOAT"}, "_grappler:ArithmeticOptimizer:AddOpsRewriteStage": {"b": true}}}, {"name": "MobilenetV2/expanded_conv_6/expand/BatchNorm/FusedBatchNorm/Mul", "op": "Conv2D", "input": ["MobilenetV2/expanded_conv_5/ArithmeticOptimizer/AddOpsRewrite_add", "MobilenetV2/expanded_conv_6/expand/Conv2D/merged_input"], "attr": {"padding": {"s": "U0FNRQ=="}, "dilations": {"list": {"i": ["1", "1", "1", "1"]}}, "T": {"type": "DT_FLOAT"}, "data_format": {"s": "TkhXQw=="}, "strides": {"list": {"i": ["1", "1", "1", "1"]}}, "use_cudnn_on_gpu": {"b": true}}}, {"name": "MobilenetV2/expanded_conv_6/expand/BatchNorm/FusedBatchNorm", "op": "Add", "input": ["MobilenetV2/expanded_conv_6/expand/BatchNorm/FusedBatchNorm/Mul", "MobilenetV2/expanded_conv_6/expand/BatchNorm/FusedBatchNorm/Offset"], "attr": {"T": {"type": "DT_FLOAT"}}}, {"name": "MobilenetV2/expanded_conv_6/expand/Relu6", "op": "Relu6", "input": ["MobilenetV2/expanded_conv_6/expand/BatchNorm/FusedBatchNorm"], "attr": {"T": {"type": "DT_FLOAT"}}}, {"name": "MobilenetV2/expanded_conv_6/depthwise/depthwise", "op": "DepthwiseConv2dNative", "input": ["MobilenetV2/expanded_conv_6/expand/Relu6", "MobilenetV2/expanded_conv_6/depthwise/depthwise_weights"], "attr": {"dilations": {"list": {"i": ["1", "1", "1", "1"]}}, "padding": {"s": "U0FNRQ=="}, "T": {"type": "DT_FLOAT"}, "strides": {"list": {"i": ["1", "1", "1", "1"]}}, "data_format": {"s": "TkhXQw=="}}}, {"name": "MobilenetV2/expanded_conv_6/depthwise/BatchNorm/FusedBatchNorm/Mul", "op": "Mul", "input": ["MobilenetV2/expanded_conv_6/depthwise/depthwise", "MobilenetV2/expanded_conv_6/depthwise/BatchNorm/FusedBatchNorm/Scaled"], "attr": {"T": {"type": "DT_FLOAT"}}}, {"name": "MobilenetV2/expanded_conv_6/depthwise/BatchNorm/FusedBatchNorm", "op": "Add", "input": ["MobilenetV2/expanded_conv_6/depthwise/BatchNorm/FusedBatchNorm/Mul", "MobilenetV2/expanded_conv_6/depthwise/BatchNorm/FusedBatchNorm/Offset"], "attr": {"T": {"type": "DT_FLOAT"}}}, {"name": "MobilenetV2/expanded_conv_6/depthwise/Relu6", "op": "Relu6", "input": ["MobilenetV2/expanded_conv_6/depthwise/BatchNorm/FusedBatchNorm"], "attr": {"T": {"type": "DT_FLOAT"}}}, {"name": "MobilenetV2/expanded_conv_6/project/BatchNorm/FusedBatchNorm/Mul", "op": "Conv2D", "input": ["MobilenetV2/expanded_conv_6/depthwise/Relu6", "MobilenetV2/expanded_conv_6/project/Conv2D/merged_input"], "attr": {"dilations": {"list": {"i": ["1", "1", "1", "1"]}}, "T": {"type": "DT_FLOAT"}, "data_format": {"s": "TkhXQw=="}, "strides": {"list": {"i": ["1", "1", "1", "1"]}}, "use_cudnn_on_gpu": {"b": true}, "padding": {"s": "U0FNRQ=="}}}, {"name": "MobilenetV2/expanded_conv_6/project/BatchNorm/FusedBatchNorm", "op": "Add", "input": ["MobilenetV2/expanded_conv_6/project/BatchNorm/FusedBatchNorm/Mul", "MobilenetV2/expanded_conv_6/project/BatchNorm/FusedBatchNorm/Offset"], "attr": {"T": {"type": "DT_FLOAT"}}}, {"name": "MobilenetV2/expanded_conv_7/expand/BatchNorm/FusedBatchNorm/Mul", "op": "Conv2D", "input": ["MobilenetV2/expanded_conv_6/project/BatchNorm/FusedBatchNorm", "MobilenetV2/expanded_conv_7/expand/Conv2D/merged_input"], "attr": {"dilations": {"list": {"i": ["1", "1", "1", "1"]}}, "T": {"type": "DT_FLOAT"}, "data_format": {"s": "TkhXQw=="}, "strides": {"list": {"i": ["1", "1", "1", "1"]}}, "use_cudnn_on_gpu": {"b": true}, "padding": {"s": "U0FNRQ=="}}}, {"name": "MobilenetV2/expanded_conv_7/expand/BatchNorm/FusedBatchNorm", "op": "Add", "input": ["MobilenetV2/expanded_conv_7/expand/BatchNorm/FusedBatchNorm/Mul", "MobilenetV2/expanded_conv_7/expand/BatchNorm/FusedBatchNorm/Offset"], "attr": {"T": {"type": "DT_FLOAT"}}}, {"name": "MobilenetV2/expanded_conv_7/expand/Relu6", "op": "Relu6", "input": ["MobilenetV2/expanded_conv_7/expand/BatchNorm/FusedBatchNorm"], "attr": {"T": {"type": "DT_FLOAT"}}}, {"name": "MobilenetV2/expanded_conv_7/depthwise/depthwise/SpaceToBatchND", "op": "SpaceToBatchND", "input": ["MobilenetV2/expanded_conv_7/expand/Relu6", "MobilenetV2/expanded_conv_12/depthwise/depthwise/SpaceToBatchND/block_shape", "MobilenetV2/expanded_conv_12/depthwise/depthwise/SpaceToBatchND/paddings"], "attr": {"Tpaddings": {"type": "DT_INT32"}, "Tblock_shape": {"type": "DT_INT32"}, "T": {"type": "DT_FLOAT"}}}, {"name": "MobilenetV2/expanded_conv_7/depthwise/depthwise", "op": "DepthwiseConv2dNative", "input": ["MobilenetV2/expanded_conv_7/depthwise/depthwise/SpaceToBatchND", "MobilenetV2/expanded_conv_7/depthwise/depthwise_weights"], "attr": {"padding": {"s": "VkFMSUQ="}, "dilations": {"list": {"i": ["1", "1", "1", "1"]}}, "T": {"type": "DT_FLOAT"}, "strides": {"list": {"i": ["1", "1", "1", "1"]}}, "data_format": {"s": "TkhXQw=="}}}, {"name": "MobilenetV2/expanded_conv_7/depthwise/depthwise/BatchToSpaceND", "op": "BatchToSpaceND", "input": ["MobilenetV2/expanded_conv_7/depthwise/depthwise", "MobilenetV2/expanded_conv_12/depthwise/depthwise/SpaceToBatchND/block_shape", "MobilenetV2/expanded_conv_12/depthwise/depthwise/BatchToSpaceND/crops"], "attr": {"Tcrops": {"type": "DT_INT32"}, "T": {"type": "DT_FLOAT"}, "Tblock_shape": {"type": "DT_INT32"}}}, {"name": "MobilenetV2/expanded_conv_7/depthwise/BatchNorm/FusedBatchNorm/Mul", "op": "Mul", "input": ["MobilenetV2/expanded_conv_7/depthwise/depthwise/BatchToSpaceND", "MobilenetV2/expanded_conv_7/depthwise/BatchNorm/FusedBatchNorm/Scaled"], "attr": {"T": {"type": "DT_FLOAT"}}}, {"name": "MobilenetV2/expanded_conv_7/depthwise/BatchNorm/FusedBatchNorm", "op": "Add", "input": ["MobilenetV2/expanded_conv_7/depthwise/BatchNorm/FusedBatchNorm/Mul", "MobilenetV2/expanded_conv_7/depthwise/BatchNorm/FusedBatchNorm/Offset"], "attr": {"T": {"type": "DT_FLOAT"}}}, {"name": "MobilenetV2/expanded_conv_7/depthwise/Relu6", "op": "Relu6", "input": ["MobilenetV2/expanded_conv_7/depthwise/BatchNorm/FusedBatchNorm"], "attr": {"T": {"type": "DT_FLOAT"}}}, {"name": "MobilenetV2/expanded_conv_7/project/BatchNorm/FusedBatchNorm/Mul", "op": "Conv2D", "input": ["MobilenetV2/expanded_conv_7/depthwise/Relu6", "MobilenetV2/expanded_conv_7/project/Conv2D/merged_input"], "attr": {"padding": {"s": "U0FNRQ=="}, "dilations": {"list": {"i": ["1", "1", "1", "1"]}}, "T": {"type": "DT_FLOAT"}, "strides": {"list": {"i": ["1", "1", "1", "1"]}}, "data_format": {"s": "TkhXQw=="}, "use_cudnn_on_gpu": {"b": true}}}, {"name": "MobilenetV2/expanded_conv_7/project/BatchNorm/FusedBatchNorm", "op": "Add", "input": ["MobilenetV2/expanded_conv_7/project/BatchNorm/FusedBatchNorm/Mul", "MobilenetV2/expanded_conv_7/project/BatchNorm/FusedBatchNorm/Offset"], "attr": {"T": {"type": "DT_FLOAT"}}}, {"name": "MobilenetV2/expanded_conv_7/add", "op": "Add", "input": ["MobilenetV2/expanded_conv_7/project/BatchNorm/FusedBatchNorm", "MobilenetV2/expanded_conv_6/project/BatchNorm/FusedBatchNorm"], "attr": {"T": {"type": "DT_FLOAT"}}}, {"name": "MobilenetV2/expanded_conv_8/expand/BatchNorm/FusedBatchNorm/Mul", "op": "Conv2D", "input": ["MobilenetV2/expanded_conv_7/add", "MobilenetV2/expanded_conv_8/expand/Conv2D/merged_input"], "attr": {"dilations": {"list": {"i": ["1", "1", "1", "1"]}}, "T": {"type": "DT_FLOAT"}, "data_format": {"s": "TkhXQw=="}, "strides": {"list": {"i": ["1", "1", "1", "1"]}}, "use_cudnn_on_gpu": {"b": true}, "padding": {"s": "U0FNRQ=="}}}, {"name": "MobilenetV2/expanded_conv_8/expand/BatchNorm/FusedBatchNorm", "op": "Add", "input": ["MobilenetV2/expanded_conv_8/expand/BatchNorm/FusedBatchNorm/Mul", "MobilenetV2/expanded_conv_8/expand/BatchNorm/FusedBatchNorm/Offset"], "attr": {"T": {"type": "DT_FLOAT"}}}, {"name": "MobilenetV2/expanded_conv_8/expand/Relu6", "op": "Relu6", "input": ["MobilenetV2/expanded_conv_8/expand/BatchNorm/FusedBatchNorm"], "attr": {"T": {"type": "DT_FLOAT"}}}, {"name": "MobilenetV2/expanded_conv_8/depthwise/depthwise/SpaceToBatchND", "op": "SpaceToBatchND", "input": ["MobilenetV2/expanded_conv_8/expand/Relu6", "MobilenetV2/expanded_conv_12/depthwise/depthwise/SpaceToBatchND/block_shape", "MobilenetV2/expanded_conv_12/depthwise/depthwise/SpaceToBatchND/paddings"], "attr": {"T": {"type": "DT_FLOAT"}, "Tpaddings": {"type": "DT_INT32"}, "Tblock_shape": {"type": "DT_INT32"}}}, {"name": "MobilenetV2/expanded_conv_8/depthwise/depthwise", "op": "DepthwiseConv2dNative", "input": ["MobilenetV2/expanded_conv_8/depthwise/depthwise/SpaceToBatchND", "MobilenetV2/expanded_conv_8/depthwise/depthwise_weights"], "attr": {"dilations": {"list": {"i": ["1", "1", "1", "1"]}}, "padding": {"s": "VkFMSUQ="}, "T": {"type": "DT_FLOAT"}, "strides": {"list": {"i": ["1", "1", "1", "1"]}}, "data_format": {"s": "TkhXQw=="}}}, {"name": "MobilenetV2/expanded_conv_8/depthwise/depthwise/BatchToSpaceND", "op": "BatchToSpaceND", "input": ["MobilenetV2/expanded_conv_8/depthwise/depthwise", "MobilenetV2/expanded_conv_12/depthwise/depthwise/SpaceToBatchND/block_shape", "MobilenetV2/expanded_conv_12/depthwise/depthwise/BatchToSpaceND/crops"], "attr": {"Tcrops": {"type": "DT_INT32"}, "T": {"type": "DT_FLOAT"}, "Tblock_shape": {"type": "DT_INT32"}}}, {"name": "MobilenetV2/expanded_conv_8/depthwise/BatchNorm/FusedBatchNorm/Mul", "op": "Mul", "input": ["MobilenetV2/expanded_conv_8/depthwise/depthwise/BatchToSpaceND", "MobilenetV2/expanded_conv_8/depthwise/BatchNorm/FusedBatchNorm/Scaled"], "attr": {"T": {"type": "DT_FLOAT"}}}, {"name": "MobilenetV2/expanded_conv_8/depthwise/BatchNorm/FusedBatchNorm", "op": "Add", "input": ["MobilenetV2/expanded_conv_8/depthwise/BatchNorm/FusedBatchNorm/Mul", "MobilenetV2/expanded_conv_8/depthwise/BatchNorm/FusedBatchNorm/Offset"], "attr": {"T": {"type": "DT_FLOAT"}}}, {"name": "MobilenetV2/expanded_conv_8/depthwise/Relu6", "op": "Relu6", "input": ["MobilenetV2/expanded_conv_8/depthwise/BatchNorm/FusedBatchNorm"], "attr": {"T": {"type": "DT_FLOAT"}}}, {"name": "MobilenetV2/expanded_conv_8/project/BatchNorm/FusedBatchNorm/Mul", "op": "Conv2D", "input": ["MobilenetV2/expanded_conv_8/depthwise/Relu6", "MobilenetV2/expanded_conv_8/project/Conv2D/merged_input"], "attr": {"use_cudnn_on_gpu": {"b": true}, "padding": {"s": "U0FNRQ=="}, "dilations": {"list": {"i": ["1", "1", "1", "1"]}}, "T": {"type": "DT_FLOAT"}, "data_format": {"s": "TkhXQw=="}, "strides": {"list": {"i": ["1", "1", "1", "1"]}}}}, {"name": "MobilenetV2/expanded_conv_8/project/BatchNorm/FusedBatchNorm", "op": "Add", "input": ["MobilenetV2/expanded_conv_8/project/BatchNorm/FusedBatchNorm/Mul", "MobilenetV2/expanded_conv_8/project/BatchNorm/FusedBatchNorm/Offset"], "attr": {"T": {"type": "DT_FLOAT"}}}, {"name": "MobilenetV2/expanded_conv_8/add", "op": "Add", "input": ["MobilenetV2/expanded_conv_8/project/BatchNorm/FusedBatchNorm", "MobilenetV2/expanded_conv_7/add"], "attr": {"T": {"type": "DT_FLOAT"}}}, {"name": "MobilenetV2/expanded_conv_9/expand/BatchNorm/FusedBatchNorm/Mul", "op": "Conv2D", "input": ["MobilenetV2/expanded_conv_8/add", "MobilenetV2/expanded_conv_9/expand/Conv2D/merged_input"], "attr": {"padding": {"s": "U0FNRQ=="}, "dilations": {"list": {"i": ["1", "1", "1", "1"]}}, "T": {"type": "DT_FLOAT"}, "strides": {"list": {"i": ["1", "1", "1", "1"]}}, "data_format": {"s": "TkhXQw=="}, "use_cudnn_on_gpu": {"b": true}}}, {"name": "MobilenetV2/expanded_conv_9/expand/BatchNorm/FusedBatchNorm", "op": "Add", "input": ["MobilenetV2/expanded_conv_9/expand/BatchNorm/FusedBatchNorm/Mul", "MobilenetV2/expanded_conv_9/expand/BatchNorm/FusedBatchNorm/Offset"], "attr": {"T": {"type": "DT_FLOAT"}}}, {"name": "MobilenetV2/expanded_conv_9/expand/Relu6", "op": "Relu6", "input": ["MobilenetV2/expanded_conv_9/expand/BatchNorm/FusedBatchNorm"], "attr": {"T": {"type": "DT_FLOAT"}}}, {"name": "MobilenetV2/expanded_conv_9/depthwise/depthwise/SpaceToBatchND", "op": "SpaceToBatchND", "input": ["MobilenetV2/expanded_conv_9/expand/Relu6", "MobilenetV2/expanded_conv_12/depthwise/depthwise/SpaceToBatchND/block_shape", "MobilenetV2/expanded_conv_12/depthwise/depthwise/SpaceToBatchND/paddings"], "attr": {"T": {"type": "DT_FLOAT"}, "Tpaddings": {"type": "DT_INT32"}, "Tblock_shape": {"type": "DT_INT32"}}}, {"name": "MobilenetV2/expanded_conv_9/depthwise/depthwise", "op": "DepthwiseConv2dNative", "input": ["MobilenetV2/expanded_conv_9/depthwise/depthwise/SpaceToBatchND", "MobilenetV2/expanded_conv_9/depthwise/depthwise_weights"], "attr": {"data_format": {"s": "TkhXQw=="}, "strides": {"list": {"i": ["1", "1", "1", "1"]}}, "dilations": {"list": {"i": ["1", "1", "1", "1"]}}, "padding": {"s": "VkFMSUQ="}, "T": {"type": "DT_FLOAT"}}}, {"name": "MobilenetV2/expanded_conv_9/depthwise/depthwise/BatchToSpaceND", "op": "BatchToSpaceND", "input": ["MobilenetV2/expanded_conv_9/depthwise/depthwise", "MobilenetV2/expanded_conv_12/depthwise/depthwise/SpaceToBatchND/block_shape", "MobilenetV2/expanded_conv_12/depthwise/depthwise/BatchToSpaceND/crops"], "attr": {"Tcrops": {"type": "DT_INT32"}, "T": {"type": "DT_FLOAT"}, "Tblock_shape": {"type": "DT_INT32"}}}, {"name": "MobilenetV2/expanded_conv_9/depthwise/BatchNorm/FusedBatchNorm/Mul", "op": "Mul", "input": ["MobilenetV2/expanded_conv_9/depthwise/depthwise/BatchToSpaceND", "MobilenetV2/expanded_conv_9/depthwise/BatchNorm/FusedBatchNorm/Scaled"], "attr": {"T": {"type": "DT_FLOAT"}}}, {"name": "MobilenetV2/expanded_conv_9/depthwise/BatchNorm/FusedBatchNorm", "op": "Add", "input": ["MobilenetV2/expanded_conv_9/depthwise/BatchNorm/FusedBatchNorm/Mul", "MobilenetV2/expanded_conv_9/depthwise/BatchNorm/FusedBatchNorm/Offset"], "attr": {"T": {"type": "DT_FLOAT"}}}, {"name": "MobilenetV2/expanded_conv_9/depthwise/Relu6", "op": "Relu6", "input": ["MobilenetV2/expanded_conv_9/depthwise/BatchNorm/FusedBatchNorm"], "attr": {"T": {"type": "DT_FLOAT"}}}, {"name": "MobilenetV2/expanded_conv_9/project/BatchNorm/FusedBatchNorm/Mul", "op": "Conv2D", "input": ["MobilenetV2/expanded_conv_9/depthwise/Relu6", "MobilenetV2/expanded_conv_9/project/Conv2D/merged_input"], "attr": {"use_cudnn_on_gpu": {"b": true}, "padding": {"s": "U0FNRQ=="}, "dilations": {"list": {"i": ["1", "1", "1", "1"]}}, "T": {"type": "DT_FLOAT"}, "data_format": {"s": "TkhXQw=="}, "strides": {"list": {"i": ["1", "1", "1", "1"]}}}}, {"name": "MobilenetV2/expanded_conv_9/project/BatchNorm/FusedBatchNorm", "op": "Add", "input": ["MobilenetV2/expanded_conv_9/project/BatchNorm/FusedBatchNorm/Mul", "MobilenetV2/expanded_conv_9/project/BatchNorm/FusedBatchNorm/Offset"], "attr": {"T": {"type": "DT_FLOAT"}}}, {"name": "MobilenetV2/expanded_conv_9/add", "op": "Add", "input": ["MobilenetV2/expanded_conv_9/project/BatchNorm/FusedBatchNorm", "MobilenetV2/expanded_conv_8/add"], "attr": {"T": {"type": "DT_FLOAT"}}}, {"name": "MobilenetV2/expanded_conv_10/expand/BatchNorm/FusedBatchNorm/Mul", "op": "Conv2D", "input": ["MobilenetV2/expanded_conv_9/add", "MobilenetV2/expanded_conv_10/expand/Conv2D/merged_input"], "attr": {"dilations": {"list": {"i": ["1", "1", "1", "1"]}}, "T": {"type": "DT_FLOAT"}, "data_format": {"s": "TkhXQw=="}, "strides": {"list": {"i": ["1", "1", "1", "1"]}}, "use_cudnn_on_gpu": {"b": true}, "padding": {"s": "U0FNRQ=="}}}, {"name": "MobilenetV2/expanded_conv_10/expand/BatchNorm/FusedBatchNorm", "op": "Add", "input": ["MobilenetV2/expanded_conv_10/expand/BatchNorm/FusedBatchNorm/Mul", "MobilenetV2/expanded_conv_10/expand/BatchNorm/FusedBatchNorm/Offset"], "attr": {"T": {"type": "DT_FLOAT"}}}, {"name": "MobilenetV2/expanded_conv_10/expand/Relu6", "op": "Relu6", "input": ["MobilenetV2/expanded_conv_10/expand/BatchNorm/FusedBatchNorm"], "attr": {"T": {"type": "DT_FLOAT"}}}, {"name": "MobilenetV2/expanded_conv_10/depthwise/depthwise/SpaceToBatchND", "op": "SpaceToBatchND", "input": ["MobilenetV2/expanded_conv_10/expand/Relu6", "MobilenetV2/expanded_conv_12/depthwise/depthwise/SpaceToBatchND/block_shape", "MobilenetV2/expanded_conv_12/depthwise/depthwise/SpaceToBatchND/paddings"], "attr": {"T": {"type": "DT_FLOAT"}, "Tpaddings": {"type": "DT_INT32"}, "Tblock_shape": {"type": "DT_INT32"}}}, {"name": "MobilenetV2/expanded_conv_10/depthwise/depthwise", "op": "DepthwiseConv2dNative", "input": ["MobilenetV2/expanded_conv_10/depthwise/depthwise/SpaceToBatchND", "MobilenetV2/expanded_conv_10/depthwise/depthwise_weights"], "attr": {"padding": {"s": "VkFMSUQ="}, "dilations": {"list": {"i": ["1", "1", "1", "1"]}}, "T": {"type": "DT_FLOAT"}, "data_format": {"s": "TkhXQw=="}, "strides": {"list": {"i": ["1", "1", "1", "1"]}}}}, {"name": "MobilenetV2/expanded_conv_10/depthwise/depthwise/BatchToSpaceND", "op": "BatchToSpaceND", "input": ["MobilenetV2/expanded_conv_10/depthwise/depthwise", "MobilenetV2/expanded_conv_12/depthwise/depthwise/SpaceToBatchND/block_shape", "MobilenetV2/expanded_conv_12/depthwise/depthwise/BatchToSpaceND/crops"], "attr": {"Tcrops": {"type": "DT_INT32"}, "T": {"type": "DT_FLOAT"}, "Tblock_shape": {"type": "DT_INT32"}}}, {"name": "MobilenetV2/expanded_conv_10/depthwise/BatchNorm/FusedBatchNorm/Mul", "op": "Mul", "input": ["MobilenetV2/expanded_conv_10/depthwise/depthwise/BatchToSpaceND", "MobilenetV2/expanded_conv_10/depthwise/BatchNorm/FusedBatchNorm/Scaled"], "attr": {"T": {"type": "DT_FLOAT"}}}, {"name": "MobilenetV2/expanded_conv_10/depthwise/BatchNorm/FusedBatchNorm", "op": "Add", "input": ["MobilenetV2/expanded_conv_10/depthwise/BatchNorm/FusedBatchNorm/Mul", "MobilenetV2/expanded_conv_10/depthwise/BatchNorm/FusedBatchNorm/Offset"], "attr": {"T": {"type": "DT_FLOAT"}}}, {"name": "MobilenetV2/expanded_conv_10/depthwise/Relu6", "op": "Relu6", "input": ["MobilenetV2/expanded_conv_10/depthwise/BatchNorm/FusedBatchNorm"], "attr": {"T": {"type": "DT_FLOAT"}}}, {"name": "MobilenetV2/expanded_conv_10/project/BatchNorm/FusedBatchNorm/Mul", "op": "Conv2D", "input": ["MobilenetV2/expanded_conv_10/depthwise/Relu6", "MobilenetV2/expanded_conv_10/project/Conv2D/merged_input"], "attr": {"data_format": {"s": "TkhXQw=="}, "strides": {"list": {"i": ["1", "1", "1", "1"]}}, "use_cudnn_on_gpu": {"b": true}, "padding": {"s": "U0FNRQ=="}, "dilations": {"list": {"i": ["1", "1", "1", "1"]}}, "T": {"type": "DT_FLOAT"}}}, {"name": "MobilenetV2/expanded_conv_10/project/BatchNorm/FusedBatchNorm", "op": "Add", "input": ["MobilenetV2/expanded_conv_10/project/BatchNorm/FusedBatchNorm/Mul", "MobilenetV2/expanded_conv_10/project/BatchNorm/FusedBatchNorm/Offset"], "attr": {"T": {"type": "DT_FLOAT"}}}, {"name": "MobilenetV2/expanded_conv_11/expand/BatchNorm/FusedBatchNorm/Mul", "op": "Conv2D", "input": ["MobilenetV2/expanded_conv_10/project/BatchNorm/FusedBatchNorm", "MobilenetV2/expanded_conv_11/expand/Conv2D/merged_input"], "attr": {"dilations": {"list": {"i": ["1", "1", "1", "1"]}}, "T": {"type": "DT_FLOAT"}, "data_format": {"s": "TkhXQw=="}, "strides": {"list": {"i": ["1", "1", "1", "1"]}}, "use_cudnn_on_gpu": {"b": true}, "padding": {"s": "U0FNRQ=="}}}, {"name": "MobilenetV2/expanded_conv_11/expand/BatchNorm/FusedBatchNorm", "op": "Add", "input": ["MobilenetV2/expanded_conv_11/expand/BatchNorm/FusedBatchNorm/Mul", "MobilenetV2/expanded_conv_11/expand/BatchNorm/FusedBatchNorm/Offset"], "attr": {"T": {"type": "DT_FLOAT"}}}, {"name": "MobilenetV2/expanded_conv_11/expand/Relu6", "op": "Relu6", "input": ["MobilenetV2/expanded_conv_11/expand/BatchNorm/FusedBatchNorm"], "attr": {"T": {"type": "DT_FLOAT"}}}, {"name": "MobilenetV2/expanded_conv_11/depthwise/depthwise/SpaceToBatchND", "op": "SpaceToBatchND", "input": ["MobilenetV2/expanded_conv_11/expand/Relu6", "MobilenetV2/expanded_conv_12/depthwise/depthwise/SpaceToBatchND/block_shape", "MobilenetV2/expanded_conv_12/depthwise/depthwise/SpaceToBatchND/paddings"], "attr": {"Tpaddings": {"type": "DT_INT32"}, "Tblock_shape": {"type": "DT_INT32"}, "T": {"type": "DT_FLOAT"}}}, {"name": "MobilenetV2/expanded_conv_11/depthwise/depthwise", "op": "DepthwiseConv2dNative", "input": ["MobilenetV2/expanded_conv_11/depthwise/depthwise/SpaceToBatchND", "MobilenetV2/expanded_conv_11/depthwise/depthwise_weights"], "attr": {"dilations": {"list": {"i": ["1", "1", "1", "1"]}}, "padding": {"s": "VkFMSUQ="}, "T": {"type": "DT_FLOAT"}, "strides": {"list": {"i": ["1", "1", "1", "1"]}}, "data_format": {"s": "TkhXQw=="}}}, {"name": "MobilenetV2/expanded_conv_11/depthwise/depthwise/BatchToSpaceND", "op": "BatchToSpaceND", "input": ["MobilenetV2/expanded_conv_11/depthwise/depthwise", "MobilenetV2/expanded_conv_12/depthwise/depthwise/SpaceToBatchND/block_shape", "MobilenetV2/expanded_conv_12/depthwise/depthwise/BatchToSpaceND/crops"], "attr": {"Tcrops": {"type": "DT_INT32"}, "T": {"type": "DT_FLOAT"}, "Tblock_shape": {"type": "DT_INT32"}}}, {"name": "MobilenetV2/expanded_conv_11/depthwise/BatchNorm/FusedBatchNorm/Mul", "op": "Mul", "input": ["MobilenetV2/expanded_conv_11/depthwise/depthwise/BatchToSpaceND", "MobilenetV2/expanded_conv_11/depthwise/BatchNorm/FusedBatchNorm/Scaled"], "attr": {"T": {"type": "DT_FLOAT"}}}, {"name": "MobilenetV2/expanded_conv_11/depthwise/BatchNorm/FusedBatchNorm", "op": "Add", "input": ["MobilenetV2/expanded_conv_11/depthwise/BatchNorm/FusedBatchNorm/Mul", "MobilenetV2/expanded_conv_11/depthwise/BatchNorm/FusedBatchNorm/Offset"], "attr": {"T": {"type": "DT_FLOAT"}}}, {"name": "MobilenetV2/expanded_conv_11/depthwise/Relu6", "op": "Relu6", "input": ["MobilenetV2/expanded_conv_11/depthwise/BatchNorm/FusedBatchNorm"], "attr": {"T": {"type": "DT_FLOAT"}}}, {"name": "MobilenetV2/expanded_conv_11/project/BatchNorm/FusedBatchNorm/Mul", "op": "Conv2D", "input": ["MobilenetV2/expanded_conv_11/depthwise/Relu6", "MobilenetV2/expanded_conv_11/project/Conv2D/merged_input"], "attr": {"strides": {"list": {"i": ["1", "1", "1", "1"]}}, "data_format": {"s": "TkhXQw=="}, "use_cudnn_on_gpu": {"b": true}, "padding": {"s": "U0FNRQ=="}, "dilations": {"list": {"i": ["1", "1", "1", "1"]}}, "T": {"type": "DT_FLOAT"}}}, {"name": "MobilenetV2/expanded_conv_11/project/BatchNorm/FusedBatchNorm", "op": "Add", "input": ["MobilenetV2/expanded_conv_11/project/BatchNorm/FusedBatchNorm/Mul", "MobilenetV2/expanded_conv_11/project/BatchNorm/FusedBatchNorm/Offset"], "attr": {"T": {"type": "DT_FLOAT"}}}, {"name": "MobilenetV2/expanded_conv_11/add", "op": "Add", "input": ["MobilenetV2/expanded_conv_11/project/BatchNorm/FusedBatchNorm", "MobilenetV2/expanded_conv_10/project/BatchNorm/FusedBatchNorm"], "attr": {"T": {"type": "DT_FLOAT"}}}, {"name": "MobilenetV2/expanded_conv_12/expand/BatchNorm/FusedBatchNorm/Mul", "op": "Conv2D", "input": ["MobilenetV2/expanded_conv_11/add", "MobilenetV2/expanded_conv_12/expand/Conv2D/merged_input"], "attr": {"dilations": {"list": {"i": ["1", "1", "1", "1"]}}, "T": {"type": "DT_FLOAT"}, "data_format": {"s": "TkhXQw=="}, "strides": {"list": {"i": ["1", "1", "1", "1"]}}, "use_cudnn_on_gpu": {"b": true}, "padding": {"s": "U0FNRQ=="}}}, {"name": "MobilenetV2/expanded_conv_12/expand/BatchNorm/FusedBatchNorm", "op": "Add", "input": ["MobilenetV2/expanded_conv_12/expand/BatchNorm/FusedBatchNorm/Mul", "MobilenetV2/expanded_conv_12/expand/BatchNorm/FusedBatchNorm/Offset"], "attr": {"T": {"type": "DT_FLOAT"}}}, {"name": "MobilenetV2/expanded_conv_12/expand/Relu6", "op": "Relu6", "input": ["MobilenetV2/expanded_conv_12/expand/BatchNorm/FusedBatchNorm"], "attr": {"T": {"type": "DT_FLOAT"}}}, {"name": "MobilenetV2/expanded_conv_12/depthwise/depthwise/SpaceToBatchND", "op": "SpaceToBatchND", "input": ["MobilenetV2/expanded_conv_12/expand/Relu6", "MobilenetV2/expanded_conv_12/depthwise/depthwise/SpaceToBatchND/block_shape", "MobilenetV2/expanded_conv_12/depthwise/depthwise/SpaceToBatchND/paddings"], "attr": {"Tblock_shape": {"type": "DT_INT32"}, "T": {"type": "DT_FLOAT"}, "Tpaddings": {"type": "DT_INT32"}}}, {"name": "MobilenetV2/expanded_conv_12/depthwise/depthwise", "op": "DepthwiseConv2dNative", "input": ["MobilenetV2/expanded_conv_12/depthwise/depthwise/SpaceToBatchND", "MobilenetV2/expanded_conv_12/depthwise/depthwise_weights"], "attr": {"data_format": {"s": "TkhXQw=="}, "strides": {"list": {"i": ["1", "1", "1", "1"]}}, "dilations": {"list": {"i": ["1", "1", "1", "1"]}}, "padding": {"s": "VkFMSUQ="}, "T": {"type": "DT_FLOAT"}}}, {"name": "MobilenetV2/expanded_conv_12/depthwise/depthwise/BatchToSpaceND", "op": "BatchToSpaceND", "input": ["MobilenetV2/expanded_conv_12/depthwise/depthwise", "MobilenetV2/expanded_conv_12/depthwise/depthwise/SpaceToBatchND/block_shape", "MobilenetV2/expanded_conv_12/depthwise/depthwise/BatchToSpaceND/crops"], "attr": {"Tcrops": {"type": "DT_INT32"}, "T": {"type": "DT_FLOAT"}, "Tblock_shape": {"type": "DT_INT32"}}}, {"name": "MobilenetV2/expanded_conv_12/depthwise/BatchNorm/FusedBatchNorm/Mul", "op": "Mul", "input": ["MobilenetV2/expanded_conv_12/depthwise/depthwise/BatchToSpaceND", "MobilenetV2/expanded_conv_12/depthwise/BatchNorm/FusedBatchNorm/Scaled"], "attr": {"T": {"type": "DT_FLOAT"}}}, {"name": "MobilenetV2/expanded_conv_12/depthwise/BatchNorm/FusedBatchNorm", "op": "Add", "input": ["MobilenetV2/expanded_conv_12/depthwise/BatchNorm/FusedBatchNorm/Mul", "MobilenetV2/expanded_conv_12/depthwise/BatchNorm/FusedBatchNorm/Offset"], "attr": {"T": {"type": "DT_FLOAT"}}}, {"name": "MobilenetV2/expanded_conv_12/depthwise/Relu6", "op": "Relu6", "input": ["MobilenetV2/expanded_conv_12/depthwise/BatchNorm/FusedBatchNorm"], "attr": {"T": {"type": "DT_FLOAT"}}}, {"name": "MobilenetV2/expanded_conv_12/project/BatchNorm/FusedBatchNorm/Mul", "op": "Conv2D", "input": ["MobilenetV2/expanded_conv_12/depthwise/Relu6", "MobilenetV2/expanded_conv_12/project/Conv2D/merged_input"], "attr": {"dilations": {"list": {"i": ["1", "1", "1", "1"]}}, "T": {"type": "DT_FLOAT"}, "data_format": {"s": "TkhXQw=="}, "strides": {"list": {"i": ["1", "1", "1", "1"]}}, "use_cudnn_on_gpu": {"b": true}, "padding": {"s": "U0FNRQ=="}}}, {"name": "MobilenetV2/expanded_conv_12/project/BatchNorm/FusedBatchNorm", "op": "Add", "input": ["MobilenetV2/expanded_conv_12/project/BatchNorm/FusedBatchNorm/Mul", "MobilenetV2/expanded_conv_12/project/BatchNorm/FusedBatchNorm/Offset"], "attr": {"T": {"type": "DT_FLOAT"}}}, {"name": "MobilenetV2/expanded_conv_12/add", "op": "Add", "input": ["MobilenetV2/expanded_conv_12/project/BatchNorm/FusedBatchNorm", "MobilenetV2/expanded_conv_11/add"], "attr": {"T": {"type": "DT_FLOAT"}}}, {"name": "MobilenetV2/expanded_conv_13/expand/BatchNorm/FusedBatchNorm/Mul", "op": "Conv2D", "input": ["MobilenetV2/expanded_conv_12/add", "MobilenetV2/expanded_conv_13/expand/Conv2D/merged_input"], "attr": {"dilations": {"list": {"i": ["1", "1", "1", "1"]}}, "T": {"type": "DT_FLOAT"}, "data_format": {"s": "TkhXQw=="}, "strides": {"list": {"i": ["1", "1", "1", "1"]}}, "use_cudnn_on_gpu": {"b": true}, "padding": {"s": "U0FNRQ=="}}}, {"name": "MobilenetV2/expanded_conv_13/expand/BatchNorm/FusedBatchNorm", "op": "Add", "input": ["MobilenetV2/expanded_conv_13/expand/BatchNorm/FusedBatchNorm/Mul", "MobilenetV2/expanded_conv_13/expand/BatchNorm/FusedBatchNorm/Offset"], "attr": {"T": {"type": "DT_FLOAT"}}}, {"name": "MobilenetV2/expanded_conv_13/expand/Relu6", "op": "Relu6", "input": ["MobilenetV2/expanded_conv_13/expand/BatchNorm/FusedBatchNorm"], "attr": {"T": {"type": "DT_FLOAT"}}}, {"name": "MobilenetV2/expanded_conv_13/depthwise/depthwise/SpaceToBatchND", "op": "SpaceToBatchND", "input": ["MobilenetV2/expanded_conv_13/expand/Relu6", "MobilenetV2/expanded_conv_12/depthwise/depthwise/SpaceToBatchND/block_shape", "MobilenetV2/expanded_conv_12/depthwise/depthwise/SpaceToBatchND/paddings"], "attr": {"T": {"type": "DT_FLOAT"}, "Tpaddings": {"type": "DT_INT32"}, "Tblock_shape": {"type": "DT_INT32"}}}, {"name": "MobilenetV2/expanded_conv_13/depthwise/depthwise", "op": "DepthwiseConv2dNative", "input": ["MobilenetV2/expanded_conv_13/depthwise/depthwise/SpaceToBatchND", "MobilenetV2/expanded_conv_13/depthwise/depthwise_weights"], "attr": {"dilations": {"list": {"i": ["1", "1", "1", "1"]}}, "padding": {"s": "VkFMSUQ="}, "T": {"type": "DT_FLOAT"}, "data_format": {"s": "TkhXQw=="}, "strides": {"list": {"i": ["1", "1", "1", "1"]}}}}, {"name": "MobilenetV2/expanded_conv_13/depthwise/depthwise/BatchToSpaceND", "op": "BatchToSpaceND", "input": ["MobilenetV2/expanded_conv_13/depthwise/depthwise", "MobilenetV2/expanded_conv_12/depthwise/depthwise/SpaceToBatchND/block_shape", "MobilenetV2/expanded_conv_12/depthwise/depthwise/BatchToSpaceND/crops"], "attr": {"Tblock_shape": {"type": "DT_INT32"}, "Tcrops": {"type": "DT_INT32"}, "T": {"type": "DT_FLOAT"}}}, {"name": "MobilenetV2/expanded_conv_13/depthwise/BatchNorm/FusedBatchNorm/Mul", "op": "Mul", "input": ["MobilenetV2/expanded_conv_13/depthwise/depthwise/BatchToSpaceND", "MobilenetV2/expanded_conv_13/depthwise/BatchNorm/FusedBatchNorm/Scaled"], "attr": {"T": {"type": "DT_FLOAT"}}}, {"name": "MobilenetV2/expanded_conv_13/depthwise/BatchNorm/FusedBatchNorm", "op": "Add", "input": ["MobilenetV2/expanded_conv_13/depthwise/BatchNorm/FusedBatchNorm/Mul", "MobilenetV2/expanded_conv_13/depthwise/BatchNorm/FusedBatchNorm/Offset"], "attr": {"T": {"type": "DT_FLOAT"}}}, {"name": "MobilenetV2/expanded_conv_13/depthwise/Relu6", "op": "Relu6", "input": ["MobilenetV2/expanded_conv_13/depthwise/BatchNorm/FusedBatchNorm"], "attr": {"T": {"type": "DT_FLOAT"}}}, {"name": "MobilenetV2/expanded_conv_13/project/BatchNorm/FusedBatchNorm/Mul", "op": "Conv2D", "input": ["MobilenetV2/expanded_conv_13/depthwise/Relu6", "MobilenetV2/expanded_conv_13/project/Conv2D/merged_input"], "attr": {"dilations": {"list": {"i": ["1", "1", "1", "1"]}}, "T": {"type": "DT_FLOAT"}, "data_format": {"s": "TkhXQw=="}, "strides": {"list": {"i": ["1", "1", "1", "1"]}}, "use_cudnn_on_gpu": {"b": true}, "padding": {"s": "U0FNRQ=="}}}, {"name": "MobilenetV2/expanded_conv_13/project/BatchNorm/FusedBatchNorm", "op": "Add", "input": ["MobilenetV2/expanded_conv_13/project/BatchNorm/FusedBatchNorm/Mul", "MobilenetV2/expanded_conv_13/project/BatchNorm/FusedBatchNorm/Offset"], "attr": {"T": {"type": "DT_FLOAT"}}}, {"name": "MobilenetV2/expanded_conv_14/expand/BatchNorm/FusedBatchNorm/Mul", "op": "Conv2D", "input": ["MobilenetV2/expanded_conv_13/project/BatchNorm/FusedBatchNorm", "MobilenetV2/expanded_conv_14/expand/Conv2D/merged_input"], "attr": {"dilations": {"list": {"i": ["1", "1", "1", "1"]}}, "T": {"type": "DT_FLOAT"}, "data_format": {"s": "TkhXQw=="}, "strides": {"list": {"i": ["1", "1", "1", "1"]}}, "use_cudnn_on_gpu": {"b": true}, "padding": {"s": "U0FNRQ=="}}}, {"name": "MobilenetV2/expanded_conv_14/expand/BatchNorm/FusedBatchNorm", "op": "Add", "input": ["MobilenetV2/expanded_conv_14/expand/BatchNorm/FusedBatchNorm/Mul", "MobilenetV2/expanded_conv_14/expand/BatchNorm/FusedBatchNorm/Offset"], "attr": {"T": {"type": "DT_FLOAT"}}}, {"name": "MobilenetV2/expanded_conv_14/expand/Relu6", "op": "Relu6", "input": ["MobilenetV2/expanded_conv_14/expand/BatchNorm/FusedBatchNorm"], "attr": {"T": {"type": "DT_FLOAT"}}}, {"name": "MobilenetV2/expanded_conv_14/depthwise/depthwise/SpaceToBatchND", "op": "SpaceToBatchND", "input": ["MobilenetV2/expanded_conv_14/expand/Relu6", "MobilenetV2/expanded_conv_15/depthwise/depthwise/SpaceToBatchND/block_shape", "MobilenetV2/expanded_conv_15/depthwise/depthwise/SpaceToBatchND/paddings"], "attr": {"Tpaddings": {"type": "DT_INT32"}, "Tblock_shape": {"type": "DT_INT32"}, "T": {"type": "DT_FLOAT"}}}, {"name": "MobilenetV2/expanded_conv_14/depthwise/depthwise", "op": "DepthwiseConv2dNative", "input": ["MobilenetV2/expanded_conv_14/depthwise/depthwise/SpaceToBatchND", "MobilenetV2/expanded_conv_14/depthwise/depthwise_weights"], "attr": {"dilations": {"list": {"i": ["1", "1", "1", "1"]}}, "padding": {"s": "VkFMSUQ="}, "T": {"type": "DT_FLOAT"}, "strides": {"list": {"i": ["1", "1", "1", "1"]}}, "data_format": {"s": "TkhXQw=="}}}, {"name": "MobilenetV2/expanded_conv_14/depthwise/depthwise/BatchToSpaceND", "op": "BatchToSpaceND", "input": ["MobilenetV2/expanded_conv_14/depthwise/depthwise", "MobilenetV2/expanded_conv_15/depthwise/depthwise/SpaceToBatchND/block_shape", "MobilenetV2/expanded_conv_15/depthwise/depthwise/BatchToSpaceND/crops"], "attr": {"Tcrops": {"type": "DT_INT32"}, "T": {"type": "DT_FLOAT"}, "Tblock_shape": {"type": "DT_INT32"}}}, {"name": "MobilenetV2/expanded_conv_14/depthwise/BatchNorm/FusedBatchNorm/Mul", "op": "Mul", "input": ["MobilenetV2/expanded_conv_14/depthwise/depthwise/BatchToSpaceND", "MobilenetV2/expanded_conv_14/depthwise/BatchNorm/FusedBatchNorm/Scaled"], "attr": {"T": {"type": "DT_FLOAT"}}}, {"name": "MobilenetV2/expanded_conv_14/depthwise/BatchNorm/FusedBatchNorm", "op": "Add", "input": ["MobilenetV2/expanded_conv_14/depthwise/BatchNorm/FusedBatchNorm/Mul", "MobilenetV2/expanded_conv_14/depthwise/BatchNorm/FusedBatchNorm/Offset"], "attr": {"T": {"type": "DT_FLOAT"}}}, {"name": "MobilenetV2/expanded_conv_14/depthwise/Relu6", "op": "Relu6", "input": ["MobilenetV2/expanded_conv_14/depthwise/BatchNorm/FusedBatchNorm"], "attr": {"T": {"type": "DT_FLOAT"}}}, {"name": "MobilenetV2/expanded_conv_14/project/BatchNorm/FusedBatchNorm/Mul", "op": "Conv2D", "input": ["MobilenetV2/expanded_conv_14/depthwise/Relu6", "MobilenetV2/expanded_conv_14/project/Conv2D/merged_input"], "attr": {"dilations": {"list": {"i": ["1", "1", "1", "1"]}}, "T": {"type": "DT_FLOAT"}, "data_format": {"s": "TkhXQw=="}, "strides": {"list": {"i": ["1", "1", "1", "1"]}}, "use_cudnn_on_gpu": {"b": true}, "padding": {"s": "U0FNRQ=="}}}, {"name": "MobilenetV2/expanded_conv_14/project/BatchNorm/FusedBatchNorm", "op": "Add", "input": ["MobilenetV2/expanded_conv_14/project/BatchNorm/FusedBatchNorm/Mul", "MobilenetV2/expanded_conv_14/project/BatchNorm/FusedBatchNorm/Offset"], "attr": {"T": {"type": "DT_FLOAT"}}}, {"name": "MobilenetV2/expanded_conv_14/add", "op": "Add", "input": ["MobilenetV2/expanded_conv_14/project/BatchNorm/FusedBatchNorm", "MobilenetV2/expanded_conv_13/project/BatchNorm/FusedBatchNorm"], "attr": {"T": {"type": "DT_FLOAT"}}}, {"name": "MobilenetV2/expanded_conv_15/expand/BatchNorm/FusedBatchNorm/Mul", "op": "Conv2D", "input": ["MobilenetV2/expanded_conv_14/add", "MobilenetV2/expanded_conv_15/expand/Conv2D/merged_input"], "attr": {"data_format": {"s": "TkhXQw=="}, "strides": {"list": {"i": ["1", "1", "1", "1"]}}, "use_cudnn_on_gpu": {"b": true}, "padding": {"s": "U0FNRQ=="}, "dilations": {"list": {"i": ["1", "1", "1", "1"]}}, "T": {"type": "DT_FLOAT"}}}, {"name": "MobilenetV2/expanded_conv_15/expand/BatchNorm/FusedBatchNorm", "op": "Add", "input": ["MobilenetV2/expanded_conv_15/expand/BatchNorm/FusedBatchNorm/Mul", "MobilenetV2/expanded_conv_15/expand/BatchNorm/FusedBatchNorm/Offset"], "attr": {"T": {"type": "DT_FLOAT"}}}, {"name": "MobilenetV2/expanded_conv_15/expand/Relu6", "op": "Relu6", "input": ["MobilenetV2/expanded_conv_15/expand/BatchNorm/FusedBatchNorm"], "attr": {"T": {"type": "DT_FLOAT"}}}, {"name": "MobilenetV2/expanded_conv_15/depthwise/depthwise/SpaceToBatchND", "op": "SpaceToBatchND", "input": ["MobilenetV2/expanded_conv_15/expand/Relu6", "MobilenetV2/expanded_conv_15/depthwise/depthwise/SpaceToBatchND/block_shape", "MobilenetV2/expanded_conv_15/depthwise/depthwise/SpaceToBatchND/paddings"], "attr": {"T": {"type": "DT_FLOAT"}, "Tpaddings": {"type": "DT_INT32"}, "Tblock_shape": {"type": "DT_INT32"}}}, {"name": "MobilenetV2/expanded_conv_15/depthwise/depthwise", "op": "DepthwiseConv2dNative", "input": ["MobilenetV2/expanded_conv_15/depthwise/depthwise/SpaceToBatchND", "MobilenetV2/expanded_conv_15/depthwise/depthwise_weights"], "attr": {"dilations": {"list": {"i": ["1", "1", "1", "1"]}}, "padding": {"s": "VkFMSUQ="}, "T": {"type": "DT_FLOAT"}, "data_format": {"s": "TkhXQw=="}, "strides": {"list": {"i": ["1", "1", "1", "1"]}}}}, {"name": "MobilenetV2/expanded_conv_15/depthwise/depthwise/BatchToSpaceND", "op": "BatchToSpaceND", "input": ["MobilenetV2/expanded_conv_15/depthwise/depthwise", "MobilenetV2/expanded_conv_15/depthwise/depthwise/SpaceToBatchND/block_shape", "MobilenetV2/expanded_conv_15/depthwise/depthwise/BatchToSpaceND/crops"], "attr": {"Tcrops": {"type": "DT_INT32"}, "T": {"type": "DT_FLOAT"}, "Tblock_shape": {"type": "DT_INT32"}}}, {"name": "MobilenetV2/expanded_conv_15/depthwise/BatchNorm/FusedBatchNorm/Mul", "op": "Mul", "input": ["MobilenetV2/expanded_conv_15/depthwise/depthwise/BatchToSpaceND", "MobilenetV2/expanded_conv_15/depthwise/BatchNorm/FusedBatchNorm/Scaled"], "attr": {"T": {"type": "DT_FLOAT"}}}, {"name": "MobilenetV2/expanded_conv_15/depthwise/BatchNorm/FusedBatchNorm", "op": "Add", "input": ["MobilenetV2/expanded_conv_15/depthwise/BatchNorm/FusedBatchNorm/Mul", "MobilenetV2/expanded_conv_15/depthwise/BatchNorm/FusedBatchNorm/Offset"], "attr": {"T": {"type": "DT_FLOAT"}}}, {"name": "MobilenetV2/expanded_conv_15/depthwise/Relu6", "op": "Relu6", "input": ["MobilenetV2/expanded_conv_15/depthwise/BatchNorm/FusedBatchNorm"], "attr": {"T": {"type": "DT_FLOAT"}}}, {"name": "MobilenetV2/expanded_conv_15/project/BatchNorm/FusedBatchNorm/Mul", "op": "Conv2D", "input": ["MobilenetV2/expanded_conv_15/depthwise/Relu6", "MobilenetV2/expanded_conv_15/project/Conv2D/merged_input"], "attr": {"T": {"type": "DT_FLOAT"}, "strides": {"list": {"i": ["1", "1", "1", "1"]}}, "data_format": {"s": "TkhXQw=="}, "use_cudnn_on_gpu": {"b": true}, "padding": {"s": "U0FNRQ=="}, "dilations": {"list": {"i": ["1", "1", "1", "1"]}}}}, {"name": "MobilenetV2/expanded_conv_15/project/BatchNorm/FusedBatchNorm", "op": "Add", "input": ["MobilenetV2/expanded_conv_15/project/BatchNorm/FusedBatchNorm/Mul", "MobilenetV2/expanded_conv_15/project/BatchNorm/FusedBatchNorm/Offset"], "attr": {"T": {"type": "DT_FLOAT"}}}, {"name": "MobilenetV2/expanded_conv_15/add", "op": "Add", "input": ["MobilenetV2/expanded_conv_15/project/BatchNorm/FusedBatchNorm", "MobilenetV2/expanded_conv_14/add"], "attr": {"T": {"type": "DT_FLOAT"}}}, {"name": "MobilenetV2/expanded_conv_16/expand/BatchNorm/FusedBatchNorm/Mul", "op": "Conv2D", "input": ["MobilenetV2/expanded_conv_15/add", "MobilenetV2/expanded_conv_16/expand/Conv2D/merged_input"], "attr": {"padding": {"s": "U0FNRQ=="}, "dilations": {"list": {"i": ["1", "1", "1", "1"]}}, "T": {"type": "DT_FLOAT"}, "data_format": {"s": "TkhXQw=="}, "strides": {"list": {"i": ["1", "1", "1", "1"]}}, "use_cudnn_on_gpu": {"b": true}}}, {"name": "MobilenetV2/expanded_conv_16/expand/BatchNorm/FusedBatchNorm", "op": "Add", "input": ["MobilenetV2/expanded_conv_16/expand/BatchNorm/FusedBatchNorm/Mul", "MobilenetV2/expanded_conv_16/expand/BatchNorm/FusedBatchNorm/Offset"], "attr": {"T": {"type": "DT_FLOAT"}}}, {"name": "MobilenetV2/expanded_conv_16/expand/Relu6", "op": "Relu6", "input": ["MobilenetV2/expanded_conv_16/expand/BatchNorm/FusedBatchNorm"], "attr": {"T": {"type": "DT_FLOAT"}}}, {"name": "MobilenetV2/expanded_conv_16/depthwise/depthwise/SpaceToBatchND", "op": "SpaceToBatchND", "input": ["MobilenetV2/expanded_conv_16/expand/Relu6", "MobilenetV2/expanded_conv_15/depthwise/depthwise/SpaceToBatchND/block_shape", "MobilenetV2/expanded_conv_15/depthwise/depthwise/SpaceToBatchND/paddings"], "attr": {"Tpaddings": {"type": "DT_INT32"}, "Tblock_shape": {"type": "DT_INT32"}, "T": {"type": "DT_FLOAT"}}}, {"name": "MobilenetV2/expanded_conv_16/depthwise/depthwise", "op": "DepthwiseConv2dNative", "input": ["MobilenetV2/expanded_conv_16/depthwise/depthwise/SpaceToBatchND", "MobilenetV2/expanded_conv_16/depthwise/depthwise_weights"], "attr": {"dilations": {"list": {"i": ["1", "1", "1", "1"]}}, "padding": {"s": "VkFMSUQ="}, "T": {"type": "DT_FLOAT"}, "data_format": {"s": "TkhXQw=="}, "strides": {"list": {"i": ["1", "1", "1", "1"]}}}}, {"name": "MobilenetV2/expanded_conv_16/depthwise/depthwise/BatchToSpaceND", "op": "BatchToSpaceND", "input": ["MobilenetV2/expanded_conv_16/depthwise/depthwise", "MobilenetV2/expanded_conv_15/depthwise/depthwise/SpaceToBatchND/block_shape", "MobilenetV2/expanded_conv_15/depthwise/depthwise/BatchToSpaceND/crops"], "attr": {"T": {"type": "DT_FLOAT"}, "Tblock_shape": {"type": "DT_INT32"}, "Tcrops": {"type": "DT_INT32"}}}, {"name": "MobilenetV2/expanded_conv_16/depthwise/BatchNorm/FusedBatchNorm/Mul", "op": "Mul", "input": ["MobilenetV2/expanded_conv_16/depthwise/depthwise/BatchToSpaceND", "MobilenetV2/expanded_conv_16/depthwise/BatchNorm/FusedBatchNorm/Scaled"], "attr": {"T": {"type": "DT_FLOAT"}}}, {"name": "MobilenetV2/expanded_conv_16/depthwise/BatchNorm/FusedBatchNorm", "op": "Add", "input": ["MobilenetV2/expanded_conv_16/depthwise/BatchNorm/FusedBatchNorm/Mul", "MobilenetV2/expanded_conv_16/depthwise/BatchNorm/FusedBatchNorm/Offset"], "attr": {"T": {"type": "DT_FLOAT"}}}, {"name": "MobilenetV2/expanded_conv_16/depthwise/Relu6", "op": "Relu6", "input": ["MobilenetV2/expanded_conv_16/depthwise/BatchNorm/FusedBatchNorm"], "attr": {"T": {"type": "DT_FLOAT"}}}, {"name": "MobilenetV2/expanded_conv_16/project/BatchNorm/FusedBatchNorm/Mul", "op": "Conv2D", "input": ["MobilenetV2/expanded_conv_16/depthwise/Relu6", "MobilenetV2/expanded_conv_16/project/Conv2D/merged_input"], "attr": {"padding": {"s": "U0FNRQ=="}, "dilations": {"list": {"i": ["1", "1", "1", "1"]}}, "T": {"type": "DT_FLOAT"}, "data_format": {"s": "TkhXQw=="}, "strides": {"list": {"i": ["1", "1", "1", "1"]}}, "use_cudnn_on_gpu": {"b": true}}}, {"name": "MobilenetV2/expanded_conv_16/project/BatchNorm/FusedBatchNorm", "op": "Add", "input": ["MobilenetV2/expanded_conv_16/project/BatchNorm/FusedBatchNorm/Mul", "MobilenetV2/expanded_conv_16/project/BatchNorm/FusedBatchNorm/Offset"], "attr": {"T": {"type": "DT_FLOAT"}}}, {"name": "aspp0/BatchNorm/FusedBatchNorm/Mul", "op": "Conv2D", "input": ["MobilenetV2/expanded_conv_16/project/BatchNorm/FusedBatchNorm", "aspp0/Conv2D/merged_input"], "attr": {"T": {"type": "DT_FLOAT"}, "data_format": {"s": "TkhXQw=="}, "strides": {"list": {"i": ["1", "1", "1", "1"]}}, "use_cudnn_on_gpu": {"b": true}, "padding": {"s": "U0FNRQ=="}, "dilations": {"list": {"i": ["1", "1", "1", "1"]}}}}, {"name": "AvgPool2D/AvgPool", "op": "AvgPool", "input": ["MobilenetV2/expanded_conv_16/project/BatchNorm/FusedBatchNorm"], "attr": {"T": {"type": "DT_FLOAT"}, "data_format": {"s": "TkhXQw=="}, "strides": {"list": {"i": ["1", "1", "1", "1"]}}, "ksize": {"list": {"i": ["1", "65", "65", "1"]}}, "padding": {"s": "VkFMSUQ="}}}, {"name": "aspp0/BatchNorm/FusedBatchNorm", "op": "Add", "input": ["aspp0/BatchNorm/FusedBatchNorm/Mul", "aspp0/BatchNorm/FusedBatchNorm/Offset"], "attr": {"T": {"type": "DT_FLOAT"}}}, {"name": "image_pooling/BatchNorm/FusedBatchNorm/Mul", "op": "Conv2D", "input": ["AvgPool2D/AvgPool", "image_pooling/Conv2D/merged_input"], "attr": {"dilations": {"list": {"i": ["1", "1", "1", "1"]}}, "T": {"type": "DT_FLOAT"}, "strides": {"list": {"i": ["1", "1", "1", "1"]}}, "data_format": {"s": "TkhXQw=="}, "use_cudnn_on_gpu": {"b": true}, "padding": {"s": "U0FNRQ=="}}}, {"name": "aspp0/Relu", "op": "Relu", "input": ["aspp0/BatchNorm/FusedBatchNorm"], "attr": {"T": {"type": "DT_FLOAT"}}}, {"name": "image_pooling/BatchNorm/FusedBatchNorm", "op": "Add", "input": ["image_pooling/BatchNorm/FusedBatchNorm/Mul", "image_pooling/BatchNorm/FusedBatchNorm/Offset"], "attr": {"T": {"type": "DT_FLOAT"}}}, {"name": "image_pooling/Relu", "op": "Relu", "input": ["image_pooling/BatchNorm/FusedBatchNorm"], "attr": {"T": {"type": "DT_FLOAT"}}}, {"name": "ResizeBilinear", "op": "ResizeBilinear", "input": ["image_pooling/Relu", "ResizeBilinear/size"], "attr": {"align_corners": {"b": true}, "T": {"type": "DT_FLOAT"}}}, {"name": "concat", "op": "ConcatV2", "input": ["ResizeBilinear", "aspp0/Relu", "concat/axis"], "attr": {"T": {"type": "DT_FLOAT"}, "N": {"i": "2"}, "Tidx": {"type": "DT_INT32"}}}, {"name": "concat_projection/BatchNorm/FusedBatchNorm/Mul", "op": "Conv2D", "input": ["concat", "concat_projection/Conv2D/merged_input"], "attr": {"dilations": {"list": {"i": ["1", "1", "1", "1"]}}, "T": {"type": "DT_FLOAT"}, "data_format": {"s": "TkhXQw=="}, "strides": {"list": {"i": ["1", "1", "1", "1"]}}, "use_cudnn_on_gpu": {"b": true}, "padding": {"s": "U0FNRQ=="}}}, {"name": "concat_projection/BatchNorm/FusedBatchNorm", "op": "Add", "input": ["concat_projection/BatchNorm/FusedBatchNorm/Mul", "concat_projection/BatchNorm/FusedBatchNorm/Offset"], "attr": {"T": {"type": "DT_FLOAT"}}}, {"name": "concat_projection/Relu", "op": "Relu", "input": ["concat_projection/BatchNorm/FusedBatchNorm"], "attr": {"T": {"type": "DT_FLOAT"}}}, {"name": "decoder/ResizeBilinear", "op": "ResizeBilinear", "input": ["concat_projection/Relu", "decoder/ResizeBilinear/size"], "attr": {"T": {"type": "DT_FLOAT"}, "align_corners": {"b": true}}}, {"name": "decoder/concat", "op": "ConcatV2", "input": ["decoder/ResizeBilinear", "decoder/ResizeBilinear_1", "concat/axis"], "attr": {"N": {"i": "2"}, "Tidx": {"type": "DT_INT32"}, "T": {"type": "DT_FLOAT"}}}, {"name": "decoder/decoder_conv0_depthwise/depthwise", "op": "DepthwiseConv2dNative", "input": ["decoder/concat", "decoder/decoder_conv0_depthwise/depthwise_weights"], "attr": {"dilations": {"list": {"i": ["1", "1", "1", "1"]}}, "padding": {"s": "U0FNRQ=="}, "T": {"type": "DT_FLOAT"}, "strides": {"list": {"i": ["1", "1", "1", "1"]}}, "data_format": {"s": "TkhXQw=="}}}, {"name": "decoder/decoder_conv0_depthwise/BatchNorm/FusedBatchNorm/Mul", "op": "Mul", "input": ["decoder/decoder_conv0_depthwise/depthwise", "decoder/decoder_conv0_depthwise/BatchNorm/FusedBatchNorm/Scaled"], "attr": {"T": {"type": "DT_FLOAT"}}}, {"name": "decoder/decoder_conv0_depthwise/BatchNorm/FusedBatchNorm", "op": "Add", "input": ["decoder/decoder_conv0_depthwise/BatchNorm/FusedBatchNorm/Mul", "decoder/decoder_conv0_depthwise/BatchNorm/FusedBatchNorm/Offset"], "attr": {"T": {"type": "DT_FLOAT"}}}, {"name": "decoder/decoder_conv0_depthwise/Relu", "op": "Relu", "input": ["decoder/decoder_conv0_depthwise/BatchNorm/FusedBatchNorm"], "attr": {"T": {"type": "DT_FLOAT"}}}, {"name": "decoder/decoder_conv0_pointwise/BatchNorm/FusedBatchNorm/Mul", "op": "Conv2D", "input": ["decoder/decoder_conv0_depthwise/Relu", "decoder/decoder_conv0_pointwise/Conv2D/merged_input"], "attr": {"T": {"type": "DT_FLOAT"}, "data_format": {"s": "TkhXQw=="}, "strides": {"list": {"i": ["1", "1", "1", "1"]}}, "use_cudnn_on_gpu": {"b": true}, "padding": {"s": "U0FNRQ=="}, "dilations": {"list": {"i": ["1", "1", "1", "1"]}}}}, {"name": "decoder/decoder_conv0_pointwise/BatchNorm/FusedBatchNorm", "op": "Add", "input": ["decoder/decoder_conv0_pointwise/BatchNorm/FusedBatchNorm/Mul", "decoder/decoder_conv0_pointwise/BatchNorm/FusedBatchNorm/Offset"], "attr": {"T": {"type": "DT_FLOAT"}}}, {"name": "decoder/decoder_conv0_pointwise/Relu", "op": "Relu", "input": ["decoder/decoder_conv0_pointwise/BatchNorm/FusedBatchNorm"], "attr": {"T": {"type": "DT_FLOAT"}}}, {"name": "decoder/decoder_conv1_depthwise/depthwise", "op": "DepthwiseConv2dNative", "input": ["decoder/decoder_conv0_pointwise/Relu", "decoder/decoder_conv1_depthwise/depthwise_weights"], "attr": {"dilations": {"list": {"i": ["1", "1", "1", "1"]}}, "padding": {"s": "U0FNRQ=="}, "T": {"type": "DT_FLOAT"}, "data_format": {"s": "TkhXQw=="}, "strides": {"list": {"i": ["1", "1", "1", "1"]}}}}, {"name": "decoder/decoder_conv1_depthwise/BatchNorm/FusedBatchNorm/Mul", "op": "Mul", "input": ["decoder/decoder_conv1_depthwise/depthwise", "decoder/decoder_conv1_depthwise/BatchNorm/FusedBatchNorm/Scaled"], "attr": {"T": {"type": "DT_FLOAT"}}}, {"name": "decoder/decoder_conv1_depthwise/BatchNorm/FusedBatchNorm", "op": "Add", "input": ["decoder/decoder_conv1_depthwise/BatchNorm/FusedBatchNorm/Mul", "decoder/decoder_conv1_depthwise/BatchNorm/FusedBatchNorm/Offset"], "attr": {"T": {"type": "DT_FLOAT"}}}, {"name": "decoder/decoder_conv1_depthwise/Relu", "op": "Relu", "input": ["decoder/decoder_conv1_depthwise/BatchNorm/FusedBatchNorm"], "attr": {"T": {"type": "DT_FLOAT"}}}, {"name": "decoder/decoder_conv1_pointwise/BatchNorm/FusedBatchNorm/Mul", "op": "Conv2D", "input": ["decoder/decoder_conv1_depthwise/Relu", "decoder/decoder_conv1_pointwise/Conv2D/merged_input"], "attr": {"dilations": {"list": {"i": ["1", "1", "1", "1"]}}, "T": {"type": "DT_FLOAT"}, "strides": {"list": {"i": ["1", "1", "1", "1"]}}, "data_format": {"s": "TkhXQw=="}, "use_cudnn_on_gpu": {"b": true}, "padding": {"s": "U0FNRQ=="}}}, {"name": "decoder/decoder_conv1_pointwise/BatchNorm/FusedBatchNorm", "op": "Add", "input": ["decoder/decoder_conv1_pointwise/BatchNorm/FusedBatchNorm/Mul", "decoder/decoder_conv1_pointwise/BatchNorm/FusedBatchNorm/Offset"], "attr": {"T": {"type": "DT_FLOAT"}}}, {"name": "decoder/decoder_conv1_pointwise/Relu", "op": "Relu", "input": ["decoder/decoder_conv1_pointwise/BatchNorm/FusedBatchNorm"], "attr": {"T": {"type": "DT_FLOAT"}}}, {"name": "logits/semantic/Conv2D", "op": "Conv2D", "input": ["decoder/decoder_conv1_pointwise/Relu", "logits/semantic/weights"], "attr": {"dilations": {"list": {"i": ["1", "1", "1", "1"]}}, "T": {"type": "DT_FLOAT"}, "strides": {"list": {"i": ["1", "1", "1", "1"]}}, "data_format": {"s": "TkhXQw=="}, "use_cudnn_on_gpu": {"b": true}, "padding": {"s": "U0FNRQ=="}}}, {"name": "logits/semantic/BiasAdd", "op": "BiasAdd", "input": ["logits/semantic/Conv2D", "logits/semantic/biases"], "attr": {"T": {"type": "DT_FLOAT"}, "data_format": {"s": "TkhXQw=="}}}, {"name": "ResizeBilinear_1", "op": "ResizeBilinear", "input": ["logits/semantic/BiasAdd", "decoder/ResizeBilinear/size"], "attr": {"T": {"type": "DT_FLOAT"}, "align_corners": {"b": true}}}, {"name": "ResizeBilinear_2", "op": "ResizeBilinear", "input": ["ResizeBilinear_1", "strided_slice_6"], "attr": {"align_corners": {"b": true}, "T": {"type": "DT_FLOAT"}}}, {"name": "ArgMax", "op": "ArgMax", "input": ["ResizeBilinear_2", "concat/axis"], "attr": {"Tidx": {"type": "DT_INT32"}, "T": {"type": "DT_FLOAT"}, "output_type": {"type": "DT_INT64"}}}, {"name": "Slice", "op": "Slice", "input": ["ArgMax", "Slice/begin", "Slice/size"], "attr": {"T": {"type": "DT_INT64"}, "Index": {"type": "DT_INT32"}}}, {"name": "ExpandDims_1", "op": "ExpandDims", "input": ["Slice", "concat/axis"], "attr": {"Tdim": {"type": "DT_INT32"}, "T": {"type": "DT_INT64"}}}, {"name": "resize/ResizeNearestNeighbor", "op": "ResizeNearestNeighbor", "input": ["ExpandDims_1", "strided_slice"], "attr": {"align_corners": {"b": true}, "T": {"type": "DT_INT64"}}}, {"name": "Squeeze_1", "op": "Squeeze", "input": ["resize/ResizeNearestNeighbor"], "attr": {"squeeze_dims": {"list": {"i": ["3"]}}, "T": {"type": "DT_INT64"}}}, {"name": "SemanticPredictions", "op": "Identity", "input": ["Squeeze_1"], "attr": {"T": {"type": "DT_INT64"}}}], "library": {}, "versions": {}}, "weightsManifest": [{"paths": ["group1-shard1of2", "group1-shard2of2"], "weights": [{"name": "strided_slice_2/stack", "shape": [1], "dtype": "int32", "quantization": {"min": 1.0, "scale": 1.0, "dtype": "uint16"}}, {"name": "strided_slice/stack_1", "shape": [1], "dtype": "int32", "quantization": {"min": 3.0, "scale": 1.0, "dtype": "uint16"}}, {"name": "concat/axis", "shape": [], "dtype": "int32", "quantization": {"min": 3.0, "scale": 1.0, "dtype": "uint16"}}, {"name": "strided_slice_2/stack_1", "shape": [1], "dtype": "int32", "quantization": {"min": 2.0, "scale": 1.0, "dtype": "uint16"}}, {"name": "strided_slice_1/stack", "shape": [1], "dtype": "int32", "quantization": {"min": 0.0, "scale": 1.0, "dtype": "uint16"}}, {"name": "Slice/size/0", "shape": [], "dtype": "int32", "quantization": {"min": 1.0, "scale": 1.0, "dtype": "uint16"}}, {"name": "Slice/begin", "shape": [3], "dtype": "int32", "quantization": {"min": 0.0, "scale": 1.0, "dtype": "uint16"}}, {"name": "strided_slice_6", "shape": [2], "dtype": "int32", "quantization": {"min": 513.0, "scale": 1.0, "dtype": "uint16"}}, {"name": "decoder/ResizeBilinear/size", "shape": [2], "dtype": "int32", "quantization": {"min": 129.0, "scale": 1.0, "dtype": "uint16"}}, {"name": "logits/semantic/biases", "shape": [151], "dtype": "float32", "quantization": {"min": -0.5082771132801257, "scale": 4.094716130509351e-05, "dtype": "uint16"}}, {"name": "logits/semantic/weights", "shape": [1, 1, 256, 151], "dtype": "float32", "quantization": {"min": -0.7188556064900539, "scale": 1.8830039985594453e-05, "dtype": "uint16"}}, {"name": "decoder/decoder_conv1_pointwise/BatchNorm/FusedBatchNorm/Offset", "shape": [256], "dtype": "float32", "quantization": {"min": -3.6090445861196483, "scale": 0.00014078582352719518, "dtype": "uint16"}}, {"name": "decoder/decoder_conv1_pointwise/Conv2D/merged_input", "shape": [1, 1, 256, 256], "dtype": "float32", "quantization": {"min": -1.6048075878384584, "scale": 4.6176198073270947e-05, "dtype": "uint16"}}, {"name": "decoder/decoder_conv1_depthwise/BatchNorm/FusedBatchNorm/Offset", "shape": [256], "dtype": "float32", "quantization": {"min": -1.2765305933839917, "scale": 4.2238455210905684e-05, "dtype": "uint16"}}, {"name": "decoder/decoder_conv1_depthwise/BatchNorm/FusedBatchNorm/Scaled", "shape": [256], "dtype": "float32", "quantization": {"min": 0.34476950764656067, "scale": 8.775501172275359e-05, "dtype": "uint16"}}, {"name": "decoder/decoder_conv1_depthwise/depthwise_weights", "shape": [3, 3, 256, 1], "dtype": "float32", "quantization": {"min": -0.8377074734864687, "scale": 2.6768948472118254e-05, "dtype": "uint16"}}, {"name": "decoder/decoder_conv0_pointwise/BatchNorm/FusedBatchNorm/Offset", "shape": [256], "dtype": "float32", "quantization": {"min": -1.6960645241823589, "scale": 6.104025495509821e-05, "dtype": "uint16"}}, {"name": "decoder/decoder_conv0_pointwise/Conv2D/merged_input", "shape": [1, 1, 304, 256], "dtype": "float32", "quantization": {"min": -0.7547367629210335, "scale": 1.9999384252504997e-05, "dtype": "uint16"}}, {"name": "decoder/decoder_conv0_depthwise/BatchNorm/FusedBatchNorm/Offset", "shape": [304], "dtype": "float32", "quantization": {"min": -1.965765184869371, "scale": 7.161518397279941e-05, "dtype": "uint16"}}, {"name": "decoder/decoder_conv0_depthwise/BatchNorm/FusedBatchNorm/Scaled", "shape": [304], "dtype": "float32", "quantization": {"min": 0.4009919762611389, "scale": 0.00016965983870228268, "dtype": "uint16"}}, {"name": "decoder/decoder_conv0_depthwise/depthwise_weights", "shape": [3, 3, 304, 1], "dtype": "float32", "quantization": {"min": -0.9270148346723696, "scale": 2.614623705182258e-05, "dtype": "uint16"}}, {"name": "decoder/feature_projection0/BatchNorm/FusedBatchNorm/Offset", "shape": [48], "dtype": "float32", "quantization": {"min": -4.085344068462174, "scale": 0.00011097558113878721, "dtype": "uint16"}}, {"name": "decoder/feature_projection0/Conv2D/merged_input", "shape": [1, 1, 144, 48], "dtype": "float32", "quantization": {"min": -0.6069383532447783, "scale": 2.334378281710686e-05, "dtype": "uint16"}}, {"name": "MobilenetV2/expanded_conv_2/depthwise/BatchNorm/FusedBatchNorm/Offset", "shape": [144], "dtype": "float32", "quantization": {"min": -3.7381354190960003, "scale": 0.00025782022340133803, "dtype": "uint16"}}, {"name": "MobilenetV2/expanded_conv_2/depthwise/BatchNorm/FusedBatchNorm/Scaled", "shape": [144], "dtype": "float32", "quantization": {"min": 0.1761469841003418, "scale": 0.000353063961875114, "dtype": "uint16"}}, {"name": "MobilenetV2/expanded_conv_2/depthwise/depthwise_weights", "shape": [3, 3, 144, 1], "dtype": "float32", "quantization": {"min": -5.3422522702824295, "scale": 0.00018590799938343643, "dtype": "uint16"}}, {"name": "MobilenetV2/expanded_conv_2/expand/BatchNorm/FusedBatchNorm/Offset", "shape": [144], "dtype": "float32", "quantization": {"min": -2.7186612839282964, "scale": 0.00010281602314228487, "dtype": "uint16"}}, {"name": "MobilenetV2/expanded_conv_2/expand/Conv2D/merged_input", "shape": [1, 1, 24, 144], "dtype": "float32", "quantization": {"min": -0.3973064684682319, "scale": 1.1541219127617485e-05, "dtype": "uint16"}}, {"name": "MobilenetV2/expanded_conv_1/project/BatchNorm/FusedBatchNorm/Offset", "shape": [24], "dtype": "float32", "quantization": {"min": -33.18839705928454, "scale": 0.0007992966875219051, "dtype": "uint16"}}, {"name": "MobilenetV2/expanded_conv_1/project/Conv2D/merged_input", "shape": [1, 1, 96, 24], "dtype": "float32", "quantization": {"min": -2.8530383633559526, "scale": 8.467245476646246e-05, "dtype": "uint16"}}, {"name": "MobilenetV2/expanded_conv_1/depthwise/BatchNorm/FusedBatchNorm/Offset", "shape": [96], "dtype": "float32", "quantization": {"min": -10.16415075312456, "scale": 0.00030464424988384367, "dtype": "uint16"}}, {"name": "MobilenetV2/expanded_conv_1/depthwise/BatchNorm/FusedBatchNorm/Scaled", "shape": [96], "dtype": "float32", "quantization": {"min": 0.0830996036529541, "scale": 4.037869206698688e-05, "dtype": "uint16"}}, {"name": "MobilenetV2/expanded_conv_1/depthwise/depthwise_weights", "shape": [3, 3, 96, 1], "dtype": "float32", "quantization": {"min": -3.644838527881136, "scale": 0.00011000961390441676, "dtype": "uint16"}}, {"name": "MobilenetV2/expanded_conv_1/expand/BatchNorm/FusedBatchNorm/Offset", "shape": [96], "dtype": "float32", "quantization": {"min": -2.1596334414177614, "scale": 8.790432438203197e-05, "dtype": "uint16"}}, {"name": "MobilenetV2/expanded_conv_1/expand/Conv2D/merged_input", "shape": [1, 1, 16, 96], "dtype": "float32", "quantization": {"min": -0.47519252180753024, "scale": 1.5565792774093626e-05, "dtype": "uint16"}}, {"name": "MobilenetV2/expanded_conv/project/BatchNorm/FusedBatchNorm/Offset", "shape": [16], "dtype": "float32", "quantization": {"min": -18.657128152565704, "scale": 0.000911348581113995, "dtype": "uint16"}}, {"name": "MobilenetV2/expanded_conv/project/Conv2D/merged_input", "shape": [1, 1, 32, 16], "dtype": "float32", "quantization": {"min": -4.38213125614368, "scale": 0.00014682474221482542, "dtype": "uint16"}}, {"name": "MobilenetV2/expanded_conv/depthwise/BatchNorm/FusedBatchNorm/Offset", "shape": [32], "dtype": "float32", "quantization": {"min": -1.084479553006266, "scale": 9.199080100146458e-05, "dtype": "uint16"}}, {"name": "MobilenetV2/expanded_conv/depthwise/BatchNorm/FusedBatchNorm/Scaled", "shape": [32], "dtype": "float32", "quantization": {"min": 0.16989058256149292, "scale": 0.00046520401686236707, "dtype": "uint16"}}, {"name": "MobilenetV2/expanded_conv/depthwise/depthwise_weights", "shape": [3, 3, 32, 1], "dtype": "float32", "quantization": {"min": -23.28619920517111, "scale": 0.0006990963164661536, "dtype": "uint16"}}, {"name": "MobilenetV2/Conv/BatchNorm/FusedBatchNorm/Offset", "shape": [32], "dtype": "float32", "quantization": {"min": -2.566039742569979, "scale": 8.889488472839946e-05, "dtype": "uint16"}}, {"name": "MobilenetV2/Conv/Conv2D/merged_input", "shape": [3, 3, 3, 32], "dtype": "float32", "quantization": {"min": -3.7534133636752265, "scale": 0.00011269481065499389, "dtype": "uint16"}}, {"name": "sub_7/y", "shape": [], "dtype": "float32", "quantization": {"min": 1.0, "scale": 1.0, "dtype": "uint16"}}, {"name": "stack/0", "shape": [], "dtype": "int32", "quantization": {"min": 0.0, "scale": 1.0, "dtype": "uint16"}}, {"name": "Reshape", "shape": [1, 1, 3], "dtype": "float32", "quantization": {"min": 127.5, "scale": 1.0, "dtype": "uint16"}}, {"name": "stack_2", "shape": [2], "dtype": "int32", "quantization": {"min": 0.0, "scale": 1.0, "dtype": "uint16"}}, {"name": "sub_1/x", "shape": [], "dtype": "int32", "quantization": {"min": 513.0, "scale": 1.0, "dtype": "uint16"}}, {"name": "mul/x", "shape": [], "dtype": "float32", "quantization": {"min": 0.007843137718737125, "scale": 1.0, "dtype": "uint16"}}, {"name": "concat_projection/BatchNorm/FusedBatchNorm/Offset", "shape": [256], "dtype": "float32", "quantization": {"min": -0.3638891215617991, "scale": 1.7400139700750686e-05, "dtype": "uint16"}}, {"name": "concat_projection/Conv2D/merged_input", "shape": [1, 1, 512, 256], "dtype": "float32", "quantization": {"min": -0.43929482425133226, "scale": 1.2304487822848363e-05, "dtype": "uint16"}}, {"name": "aspp0/BatchNorm/FusedBatchNorm/Offset", "shape": [256], "dtype": "float32", "quantization": {"min": -0.46024508996314334, "scale": 1.3931622774038725e-05, "dtype": "uint16"}}, {"name": "aspp0/Conv2D/merged_input", "shape": [1, 1, 320, 256], "dtype": "float32", "quantization": {"min": -0.15849580558084683, "scale": 5.576518386490987e-06, "dtype": "uint16"}}, {"name": "MobilenetV2/expanded_conv_16/project/BatchNorm/FusedBatchNorm/Offset", "shape": [320], "dtype": "float32", "quantization": {"min": -12.972555062397399, "scale": 0.00040017753223300733, "dtype": "uint16"}}, {"name": "MobilenetV2/expanded_conv_16/project/Conv2D/merged_input", "shape": [1, 1, 960, 320], "dtype": "float32", "quantization": {"min": -1.032836712111577, "scale": 3.3583817133107137e-05, "dtype": "uint16"}}, {"name": "MobilenetV2/expanded_conv_16/depthwise/BatchNorm/FusedBatchNorm/Offset", "shape": [960], "dtype": "float32", "quantization": {"min": -4.121279896137834, "scale": 0.00011880311029512349, "dtype": "uint16"}}, {"name": "MobilenetV2/expanded_conv_16/depthwise/BatchNorm/FusedBatchNorm/Scaled", "shape": [960], "dtype": "float32", "quantization": {"min": 0.13053946197032928, "scale": 0.0007241702813291619, "dtype": "uint16"}}, {"name": "MobilenetV2/expanded_conv_15/depthwise/depthwise/BatchToSpaceND/crops", "shape": [2, 2], "dtype": "int32", "quantization": {"min": -0.0, "scale": 4.5777065690089265e-05, "dtype": "uint16"}}, {"name": "MobilenetV2/expanded_conv_15/depthwise/depthwise/SpaceToBatchND/block_shape", "shape": [2], "dtype": "int32", "quantization": {"min": 4.0, "scale": 1.0, "dtype": "uint16"}}, {"name": "MobilenetV2/expanded_conv_16/depthwise/depthwise_weights", "shape": [3, 3, 960, 1], "dtype": "float32", "quantization": {"min": -1.8485358108342391, "scale": 5.89682216037463e-05, "dtype": "uint16"}}, {"name": "MobilenetV2/expanded_conv_15/depthwise/depthwise/SpaceToBatchND/paddings", "shape": [2, 2], "dtype": "int32", "quantization": {"min": 4.0, "scale": 4.5777065690089265e-05, "dtype": "uint16"}}, {"name": "MobilenetV2/expanded_conv_16/expand/BatchNorm/FusedBatchNorm/Offset", "shape": [960], "dtype": "float32", "quantization": {"min": -1.873406866779678, "scale": 5.265040938619746e-05, "dtype": "uint16"}}, {"name": "MobilenetV2/expanded_conv_16/expand/Conv2D/merged_input", "shape": [1, 1, 160, 960], "dtype": "float32", "quantization": {"min": -0.15642691057411587, "scale": 4.677698351547976e-06, "dtype": "uint16"}}, {"name": "MobilenetV2/expanded_conv_13/project/BatchNorm/FusedBatchNorm/Offset", "shape": [160], "dtype": "float32", "quantization": {"min": -11.895500648191776, "scale": 0.0003833795490586495, "dtype": "uint16"}}, {"name": "MobilenetV2/expanded_conv_13/project/Conv2D/merged_input", "shape": [1, 1, 576, 160], "dtype": "float32", "quantization": {"min": -0.7094626572691095, "scale": 2.2311549697122758e-05, "dtype": "uint16"}}, {"name": "MobilenetV2/expanded_conv_13/depthwise/BatchNorm/FusedBatchNorm/Offset", "shape": [576], "dtype": "float32", "quantization": {"min": -5.587377087970051, "scale": 0.0001468546032005165, "dtype": "uint16"}}, {"name": "MobilenetV2/expanded_conv_13/depthwise/BatchNorm/FusedBatchNorm/Scaled", "shape": [576], "dtype": "float32", "quantization": {"min": 0.2140834778547287, "scale": 0.0004891432779117426, "dtype": "uint16"}}, {"name": "MobilenetV2/expanded_conv_12/depthwise/depthwise/BatchToSpaceND/crops", "shape": [2, 2], "dtype": "int32", "quantization": {"min": -0.0, "scale": 1.5259021896696422e-05, "dtype": "uint16"}}, {"name": "MobilenetV2/expanded_conv_12/depthwise/depthwise/SpaceToBatchND/block_shape", "shape": [2], "dtype": "int32", "quantization": {"min": 2.0, "scale": 1.0, "dtype": "uint16"}}, {"name": "MobilenetV2/expanded_conv_13/depthwise/depthwise_weights", "shape": [3, 3, 576, 1], "dtype": "float32", "quantization": {"min": -1.473134891042959, "scale": 4.79270875831395e-05, "dtype": "uint16"}}, {"name": "MobilenetV2/expanded_conv_12/depthwise/depthwise/SpaceToBatchND/paddings", "shape": [2, 2], "dtype": "int32", "quantization": {"min": 2.0, "scale": 1.5259021896696422e-05, "dtype": "uint16"}}, {"name": "MobilenetV2/expanded_conv_13/expand/BatchNorm/FusedBatchNorm/Offset", "shape": [576], "dtype": "float32", "quantization": {"min": -3.572003142024429, "scale": 8.545053208038919e-05, "dtype": "uint16"}}, {"name": "MobilenetV2/expanded_conv_13/expand/Conv2D/merged_input", "shape": [1, 1, 96, 576], "dtype": "float32", "quantization": {"min": -0.19191067873990497, "scale": 5.930124180826432e-06, "dtype": "uint16"}}, {"name": "MobilenetV2/expanded_conv_10/project/BatchNorm/FusedBatchNorm/Offset", "shape": [96], "dtype": "float32", "quantization": {"min": -6.437625080938696, "scale": 0.00021565860711328586, "dtype": "uint16"}}, {"name": "MobilenetV2/expanded_conv_10/project/Conv2D/merged_input", "shape": [1, 1, 384, 96], "dtype": "float32", "quantization": {"min": -0.7549078467545816, "scale": 2.1890269870515036e-05, "dtype": "uint16"}}, {"name": "MobilenetV2/expanded_conv_10/depthwise/BatchNorm/FusedBatchNorm/Offset", "shape": [384], "dtype": "float32", "quantization": {"min": -3.6618107520461654, "scale": 0.00017767155516963443, "dtype": "uint16"}}, {"name": "MobilenetV2/expanded_conv_10/depthwise/BatchNorm/FusedBatchNorm/Scaled", "shape": [384], "dtype": "float32", "quantization": {"min": 0.20779012143611908, "scale": 3.2552727492784956e-05, "dtype": "uint16"}}, {"name": "MobilenetV2/expanded_conv_10/depthwise/depthwise_weights", "shape": [3, 3, 384, 1], "dtype": "float32", "quantization": {"min": -3.3832995696681545, "scale": 0.00010243421144049637, "dtype": "uint16"}}, {"name": "MobilenetV2/expanded_conv_10/expand/BatchNorm/FusedBatchNorm/Offset", "shape": [384], "dtype": "float32", "quantization": {"min": -1.061612928722219, "scale": 6.935473500504468e-05, "dtype": "uint16"}}, {"name": "MobilenetV2/expanded_conv_10/expand/Conv2D/merged_input", "shape": [1, 1, 64, 384], "dtype": "float32", "quantization": {"min": -0.23647728178587896, "scale": 6.734174786020018e-06, "dtype": "uint16"}}, {"name": "MobilenetV2/expanded_conv_6/project/BatchNorm/FusedBatchNorm/Offset", "shape": [64], "dtype": "float32", "quantization": {"min": -16.57917555665464, "scale": 0.0005494705715923058, "dtype": "uint16"}}, {"name": "MobilenetV2/expanded_conv_6/project/Conv2D/merged_input", "shape": [1, 1, 192, 64], "dtype": "float32", "quantization": {"min": -1.7758088159808545, "scale": 5.798559399121157e-05, "dtype": "uint16"}}, {"name": "MobilenetV2/expanded_conv_6/depthwise/BatchNorm/FusedBatchNorm/Offset", "shape": [192], "dtype": "float32", "quantization": {"min": -1.227686504974985, "scale": 0.00012292845749223841, "dtype": "uint16"}}, {"name": "MobilenetV2/expanded_conv_6/depthwise/BatchNorm/FusedBatchNorm/Scaled", "shape": [192], "dtype": "float32", "quantization": {"min": 0.1420048326253891, "scale": 2.5175761610799335e-05, "dtype": "uint16"}}, {"name": "MobilenetV2/expanded_conv_6/depthwise/depthwise_weights", "shape": [3, 3, 192, 1], "dtype": "float32", "quantization": {"min": -1.8870125080597449, "scale": 6.435264154621781e-05, "dtype": "uint16"}}, {"name": "MobilenetV2/expanded_conv_6/expand/BatchNorm/FusedBatchNorm/Offset", "shape": [192], "dtype": "float32", "quantization": {"min": -1.9359141763000416, "scale": 6.244682998290512e-05, "dtype": "uint16"}}, {"name": "MobilenetV2/expanded_conv_6/expand/Conv2D/merged_input", "shape": [1, 1, 32, 192], "dtype": "float32", "quantization": {"min": -0.20523924806566038, "scale": 5.73358051362332e-06, "dtype": "uint16"}}, {"name": "MobilenetV2/expanded_conv_3/project/BatchNorm/FusedBatchNorm/Offset", "shape": [32], "dtype": "float32", "quantization": {"min": -17.619870321783566, "scale": 0.00041800793133857383, "dtype": "uint16"}}, {"name": "MobilenetV2/expanded_conv_3/project/Conv2D/merged_input", "shape": [1, 1, 144, 32], "dtype": "float32", "quantization": {"min": -2.0460306798874255, "scale": 6.286194788888489e-05, "dtype": "uint16"}}, {"name": "MobilenetV2/expanded_conv_3/depthwise/BatchNorm/FusedBatchNorm/Offset", "shape": [144], "dtype": "float32", "quantization": {"min": -4.244241421412046, "scale": 0.00022043426931609258, "dtype": "uint16"}}, {"name": "MobilenetV2/expanded_conv_3/depthwise/BatchNorm/FusedBatchNorm/Scaled", "shape": [144], "dtype": "float32", "quantization": {"min": 0.08944757282733917, "scale": 2.7780396365151667e-05, "dtype": "uint16"}}, {"name": "MobilenetV2/expanded_conv_3/depthwise/depthwise_weights", "shape": [3, 3, 144, 1], "dtype": "float32", "quantization": {"min": -2.262189096381101, "scale": 6.560112215465436e-05, "dtype": "uint16"}}, {"name": "MobilenetV2/expanded_conv_3/expand/BatchNorm/FusedBatchNorm/Offset", "shape": [144], "dtype": "float32", "quantization": {"min": -2.4759591413251845, "scale": 7.913193586644459e-05, "dtype": "uint16"}}, {"name": "MobilenetV2/expanded_conv_3/expand/Conv2D/merged_input", "shape": [1, 1, 24, 144], "dtype": "float32", "quantization": {"min": -0.2640206988710756, "scale": 7.771028664343652e-06, "dtype": "uint16"}}, {"name": "MobilenetV2/expanded_conv_2/project/Conv2D/merged_input", "shape": [1, 1, 144, 24], "dtype": "float32", "quantization": {"min": -2.9867423359440237, "scale": 8.067915548201037e-05, "dtype": "uint16"}}, {"name": "MobilenetV2/expanded_conv_2/project/BatchNorm/FusedBatchNorm/Offset", "shape": [24], "dtype": "float32", "quantization": {"min": -10.083128441408752, "scale": 0.000435424642285648, "dtype": "uint16"}}, {"name": "MobilenetV2/expanded_conv_4/project/Conv2D/merged_input", "shape": [1, 1, 192, 32], "dtype": "float32", "quantization": {"min": -1.4610241914564914, "scale": 6.569648776727782e-05, "dtype": "uint16"}}, {"name": "MobilenetV2/expanded_conv_4/depthwise/BatchNorm/FusedBatchNorm/Offset", "shape": [192], "dtype": "float32", "quantization": {"min": -3.962853814612048, "scale": 0.0002229328203539631, "dtype": "uint16"}}, {"name": "MobilenetV2/expanded_conv_4/depthwise/BatchNorm/FusedBatchNorm/Scaled", "shape": [192], "dtype": "float32", "quantization": {"min": 0.3205300569534302, "scale": 0.00014405058643006074, "dtype": "uint16"}}, {"name": "MobilenetV2/expanded_conv_4/depthwise/depthwise_weights", "shape": [3, 3, 192, 1], "dtype": "float32", "quantization": {"min": -4.314882806102881, "scale": 0.00012874482488744982, "dtype": "uint16"}}, {"name": "MobilenetV2/expanded_conv_4/expand/BatchNorm/FusedBatchNorm/Offset", "shape": [192], "dtype": "float32", "quantization": {"min": -2.296161038886312, "scale": 8.024887424898864e-05, "dtype": "uint16"}}, {"name": "MobilenetV2/expanded_conv_4/expand/Conv2D/merged_input", "shape": [1, 1, 32, 192], "dtype": "float32", "quantization": {"min": -0.13562871933897455, "scale": 4.674434580009462e-06, "dtype": "uint16"}}, {"name": "MobilenetV2/expanded_conv_4/project/BatchNorm/FusedBatchNorm/Offset", "shape": [32], "dtype": "float32", "quantization": {"min": -16.522747904009975, "scale": 0.00036639866734693367, "dtype": "uint16"}}, {"name": "MobilenetV2/expanded_conv_5/project/Conv2D/merged_input", "shape": [1, 1, 192, 32], "dtype": "float32", "quantization": {"min": -2.859031486904138, "scale": 8.389176898192894e-05, "dtype": "uint16"}}, {"name": "MobilenetV2/expanded_conv_5/depthwise/BatchNorm/FusedBatchNorm/Offset", "shape": [192], "dtype": "float32", "quantization": {"min": -5.6800892378706, "scale": 0.0001624693011604531, "dtype": "uint16"}}, {"name": "MobilenetV2/expanded_conv_5/depthwise/BatchNorm/FusedBatchNorm/Scaled", "shape": [192], "dtype": "float32", "quantization": {"min": 0.32615306973457336, "scale": 4.1133110788982284e-05, "dtype": "uint16"}}, {"name": "MobilenetV2/expanded_conv_5/depthwise/depthwise_weights", "shape": [3, 3, 192, 1], "dtype": "float32", "quantization": {"min": -3.372422523954017, "scale": 0.00011356869924074817, "dtype": "uint16"}}, {"name": "MobilenetV2/expanded_conv_5/expand/BatchNorm/FusedBatchNorm/Offset", "shape": [192], "dtype": "float32", "quantization": {"min": -1.1003537009744084, "scale": 5.1584721812123594e-05, "dtype": "uint16"}}, {"name": "MobilenetV2/expanded_conv_5/expand/Conv2D/merged_input", "shape": [1, 1, 32, 192], "dtype": "float32", "quantization": {"min": -0.1310064565660643, "scale": 4.202426912364929e-06, "dtype": "uint16"}}, {"name": "MobilenetV2/expanded_conv_5/project/BatchNorm/FusedBatchNorm/Offset", "shape": [32], "dtype": "float32", "quantization": {"min": -11.314035735840092, "scale": 0.00030478801044799686, "dtype": "uint16"}}, {"name": "MobilenetV2/expanded_conv_7/project/BatchNorm/FusedBatchNorm/Offset", "shape": [64], "dtype": "float32", "quantization": {"min": -6.4529232865968975, "scale": 0.00018056195888401414, "dtype": "uint16"}}, {"name": "MobilenetV2/expanded_conv_7/project/Conv2D/merged_input", "shape": [1, 1, 384, 64], "dtype": "float32", "quantization": {"min": -1.1130174921407865, "scale": 3.988309356580021e-05, "dtype": "uint16"}}, {"name": "MobilenetV2/expanded_conv_7/depthwise/BatchNorm/FusedBatchNorm/Offset", "shape": [384], "dtype": "float32", "quantization": {"min": -11.102287308196777, "scale": 0.00031046664732093895, "dtype": "uint16"}}, {"name": "MobilenetV2/expanded_conv_7/depthwise/BatchNorm/FusedBatchNorm/Scaled", "shape": [384], "dtype": "float32", "quantization": {"min": 0.35028791427612305, "scale": 0.00010466479942256002, "dtype": "uint16"}}, {"name": "MobilenetV2/expanded_conv_7/depthwise/depthwise_weights", "shape": [3, 3, 384, 1], "dtype": "float32", "quantization": {"min": -2.62796938617433, "scale": 8.900526268964066e-05, "dtype": "uint16"}}, {"name": "MobilenetV2/expanded_conv_7/expand/BatchNorm/FusedBatchNorm/Offset", "shape": [384], "dtype": "float32", "quantization": {"min": -1.6162530306630343, "scale": 6.21683602839847e-05, "dtype": "uint16"}}, {"name": "MobilenetV2/expanded_conv_7/expand/Conv2D/merged_input", "shape": [1, 1, 64, 384], "dtype": "float32", "quantization": {"min": -0.1922771247830991, "scale": 5.270465566117513e-06, "dtype": "uint16"}}, {"name": "MobilenetV2/expanded_conv_8/project/BatchNorm/FusedBatchNorm/Offset", "shape": [64], "dtype": "float32", "quantization": {"min": -4.335822065855005, "scale": 0.00015869343627315005, "dtype": "uint16"}}, {"name": "MobilenetV2/expanded_conv_8/project/Conv2D/merged_input", "shape": [1, 1, 384, 64], "dtype": "float32", "quantization": {"min": -1.17868078024007, "scale": 3.512368973836552e-05, "dtype": "uint16"}}, {"name": "MobilenetV2/expanded_conv_8/depthwise/BatchNorm/FusedBatchNorm/Offset", "shape": [384], "dtype": "float32", "quantization": {"min": -3.0160888732848457, "scale": 0.00010147323195117739, "dtype": "uint16"}}, {"name": "MobilenetV2/expanded_conv_8/depthwise/BatchNorm/FusedBatchNorm/Scaled", "shape": [384], "dtype": "float32", "quantization": {"min": 0.3986995220184326, "scale": 5.3196181837695865e-05, "dtype": "uint16"}}, {"name": "MobilenetV2/expanded_conv_8/depthwise/depthwise_weights", "shape": [3, 3, 384, 1], "dtype": "float32", "quantization": {"min": -2.7093576152200805, "scale": 7.946495425194546e-05, "dtype": "uint16"}}, {"name": "MobilenetV2/expanded_conv_8/expand/BatchNorm/FusedBatchNorm/Offset", "shape": [384], "dtype": "float32", "quantization": {"min": -1.0306134715072621, "scale": 4.319419411178802e-05, "dtype": "uint16"}}, {"name": "MobilenetV2/expanded_conv_8/expand/Conv2D/merged_input", "shape": [1, 1, 64, 384], "dtype": "float32", "quantization": {"min": -0.15347047069416153, "scale": 4.092764165933157e-06, "dtype": "uint16"}}, {"name": "MobilenetV2/expanded_conv_9/project/BatchNorm/FusedBatchNorm/Offset", "shape": [64], "dtype": "float32", "quantization": {"min": -11.070140490390402, "scale": 0.0003095590305190124, "dtype": "uint16"}}, {"name": "MobilenetV2/expanded_conv_9/project/Conv2D/merged_input", "shape": [1, 1, 384, 64], "dtype": "float32", "quantization": {"min": -1.367428344780551, "scale": 3.623094549256931e-05, "dtype": "uint16"}}, {"name": "MobilenetV2/expanded_conv_9/depthwise/BatchNorm/FusedBatchNorm/Offset", "shape": [384], "dtype": "float32", "quantization": {"min": -13.417329763804073, "scale": 0.00025337707753529616, "dtype": "uint16"}}, {"name": "MobilenetV2/expanded_conv_9/depthwise/BatchNorm/FusedBatchNorm/Scaled", "shape": [384], "dtype": "float32", "quantization": {"min": 0.44059285521507263, "scale": 6.618430496781026e-05, "dtype": "uint16"}}, {"name": "MobilenetV2/expanded_conv_9/depthwise/depthwise_weights", "shape": [3, 3, 384, 1], "dtype": "float32", "quantization": {"min": -2.2375390345693553, "scale": 6.499372685884206e-05, "dtype": "uint16"}}, {"name": "MobilenetV2/expanded_conv_9/expand/BatchNorm/FusedBatchNorm/Offset", "shape": [384], "dtype": "float32", "quantization": {"min": -1.3747247070326472, "scale": 4.327115854682553e-05, "dtype": "uint16"}}, {"name": "MobilenetV2/expanded_conv_9/expand/Conv2D/merged_input", "shape": [1, 1, 64, 384], "dtype": "float32", "quantization": {"min": -0.15650170341644534, "scale": 5.319026048208726e-06, "dtype": "uint16"}}, {"name": "MobilenetV2/expanded_conv_11/project/BatchNorm/FusedBatchNorm/Offset", "shape": [96], "dtype": "float32", "quantization": {"min": -5.917939908231451, "scale": 0.0001786763656964298, "dtype": "uint16"}}, {"name": "MobilenetV2/expanded_conv_11/project/Conv2D/merged_input", "shape": [1, 1, 576, 96], "dtype": "float32", "quantization": {"min": -0.7965946741605083, "scale": 2.61874050481774e-05, "dtype": "uint16"}}, {"name": "MobilenetV2/expanded_conv_11/depthwise/BatchNorm/FusedBatchNorm/Offset", "shape": [576], "dtype": "float32", "quantization": {"min": -3.492734732860339, "scale": 0.00014176210458886025, "dtype": "uint16"}}, {"name": "MobilenetV2/expanded_conv_11/depthwise/BatchNorm/FusedBatchNorm/Scaled", "shape": [576], "dtype": "float32", "quantization": {"min": 0.3358190953731537, "scale": 0.00019915144340009887, "dtype": "uint16"}}, {"name": "MobilenetV2/expanded_conv_11/depthwise/depthwise_weights", "shape": [3, 3, 576, 1], "dtype": "float32", "quantization": {"min": -2.445850168147967, "scale": 7.088598910700113e-05, "dtype": "uint16"}}, {"name": "MobilenetV2/expanded_conv_11/expand/BatchNorm/FusedBatchNorm/Offset", "shape": [576], "dtype": "float32", "quantization": {"min": -1.49588810743252, "scale": 4.594392049610001e-05, "dtype": "uint16"}}, {"name": "MobilenetV2/expanded_conv_11/expand/Conv2D/merged_input", "shape": [1, 1, 96, 576], "dtype": "float32", "quantization": {"min": -0.2287332415587571, "scale": 5.990760890462719e-06, "dtype": "uint16"}}, {"name": "MobilenetV2/expanded_conv_12/project/BatchNorm/FusedBatchNorm/Offset", "shape": [96], "dtype": "float32", "quantization": {"min": -7.69971062799263, "scale": 0.000238329483641088, "dtype": "uint16"}}, {"name": "MobilenetV2/expanded_conv_12/project/Conv2D/merged_input", "shape": [1, 1, 576, 96], "dtype": "float32", "quantization": {"min": -2.23716084545843, "scale": 6.048342287926977e-05, "dtype": "uint16"}}, {"name": "MobilenetV2/expanded_conv_12/depthwise/BatchNorm/FusedBatchNorm/Offset", "shape": [576], "dtype": "float32", "quantization": {"min": -4.464665824975703, "scale": 0.00017192952191064784, "dtype": "uint16"}}, {"name": "MobilenetV2/expanded_conv_12/depthwise/BatchNorm/FusedBatchNorm/Scaled", "shape": [576], "dtype": "float32", "quantization": {"min": 0.33957332372665405, "scale": 0.0005029628367230103, "dtype": "uint16"}}, {"name": "MobilenetV2/expanded_conv_12/depthwise/depthwise_weights", "shape": [3, 3, 576, 1], "dtype": "float32", "quantization": {"min": -2.602463514053404, "scale": 7.80255295932543e-05, "dtype": "uint16"}}, {"name": "MobilenetV2/expanded_conv_12/expand/BatchNorm/FusedBatchNorm/Offset", "shape": [576], "dtype": "float32", "quantization": {"min": -1.4132188652057782, "scale": 6.529982742841596e-05, "dtype": "uint16"}}, {"name": "MobilenetV2/expanded_conv_12/expand/Conv2D/merged_input", "shape": [1, 1, 96, 576], "dtype": "float32", "quantization": {"min": -0.16122092464982105, "scale": 4.922024871006596e-06, "dtype": "uint16"}}, {"name": "MobilenetV2/expanded_conv_14/project/BatchNorm/FusedBatchNorm/Offset", "shape": [160], "dtype": "float32", "quantization": {"min": -6.49317831195282, "scale": 0.0001943774378671702, "dtype": "uint16"}}, {"name": "MobilenetV2/expanded_conv_14/project/Conv2D/merged_input", "shape": [1, 1, 960, 160], "dtype": "float32", "quantization": {"min": -0.7254399283359569, "scale": 2.3513546231555715e-05, "dtype": "uint16"}}, {"name": "MobilenetV2/expanded_conv_14/depthwise/BatchNorm/FusedBatchNorm/Offset", "shape": [960], "dtype": "float32", "quantization": {"min": -5.345422208562926, "scale": 0.00016131766684460787, "dtype": "uint16"}}, {"name": "MobilenetV2/expanded_conv_14/depthwise/BatchNorm/FusedBatchNorm/Scaled", "shape": [960], "dtype": "float32", "quantization": {"min": 0.2242109626531601, "scale": 0.00021686386264433728, "dtype": "uint16"}}, {"name": "MobilenetV2/expanded_conv_14/depthwise/depthwise_weights", "shape": [3, 3, 960, 1], "dtype": "float32", "quantization": {"min": -3.2386607560902627, "scale": 8.488836118919749e-05, "dtype": "uint16"}}, {"name": "MobilenetV2/expanded_conv_14/expand/BatchNorm/FusedBatchNorm/Offset", "shape": [960], "dtype": "float32", "quantization": {"min": -1.4358046111266, "scale": 6.557982146371609e-05, "dtype": "uint16"}}, {"name": "MobilenetV2/expanded_conv_14/expand/Conv2D/merged_input", "shape": [1, 1, 160, 960], "dtype": "float32", "quantization": {"min": -0.23924736617003842, "scale": 7.594431202426385e-06, "dtype": "uint16"}}, {"name": "MobilenetV2/expanded_conv_15/project/BatchNorm/FusedBatchNorm/Offset", "shape": [160], "dtype": "float32", "quantization": {"min": -7.313154737472971, "scale": 0.00025178704553186333, "dtype": "uint16"}}, {"name": "MobilenetV2/expanded_conv_15/project/Conv2D/merged_input", "shape": [1, 1, 960, 160], "dtype": "float32", "quantization": {"min": -2.0037345689049006, "scale": 5.9009735213361434e-05, "dtype": "uint16"}}, {"name": "MobilenetV2/expanded_conv_15/depthwise/BatchNorm/FusedBatchNorm/Offset", "shape": [960], "dtype": "float32", "quantization": {"min": -9.434335044516827, "scale": 0.00027994228789996817, "dtype": "uint16"}}, {"name": "MobilenetV2/expanded_conv_15/depthwise/BatchNorm/FusedBatchNorm/Scaled", "shape": [960], "dtype": "float32", "quantization": {"min": 0.20635415613651276, "scale": 0.00037880493895707583, "dtype": "uint16"}}, {"name": "MobilenetV2/expanded_conv_15/depthwise/depthwise_weights", "shape": [3, 3, 960, 1], "dtype": "float32", "quantization": {"min": -3.1277964181064, "scale": 9.052694330428643e-05, "dtype": "uint16"}}, {"name": "MobilenetV2/expanded_conv_15/expand/BatchNorm/FusedBatchNorm/Offset", "shape": [960], "dtype": "float32", "quantization": {"min": -1.749967507420356, "scale": 5.306630401250435e-05, "dtype": "uint16"}}, {"name": "MobilenetV2/expanded_conv_15/expand/Conv2D/merged_input", "shape": [1, 1, 160, 960], "dtype": "float32", "quantization": {"min": -0.24070177704352777, "scale": 6.974639304671779e-06, "dtype": "uint16"}}, {"name": "ResizeBilinear/size", "shape": [2], "dtype": "int32", "quantization": {"min": 65.0, "scale": 1.0, "dtype": "uint16"}}, {"name": "image_pooling/BatchNorm/FusedBatchNorm/Offset", "shape": [256], "dtype": "float32", "quantization": {"min": -0.21421280427897488, "scale": 7.841165645849954e-06, "dtype": "uint16"}}, {"name": "image_pooling/Conv2D/merged_input", "shape": [1, 1, 320, 256], "dtype": "float32", "quantization": {"min": -0.24672823632219124, "scale": 7.0077322291010914e-06, "dtype": "uint16"}}]}]}